hackathon_1/check.pth (torch, 30807 bytes, 6 tensors)

0.weight f4 [64, 75]
0.0026398152 -0.11127893 0.027773052 -0.037944034 -0.073514454 0.08206047 -0.15072015 -0.09386993
0.20401892 0.012353349 0.020452594 0.01812259 -0.031284433 -0.08917227 0.14172997 0.18385963
-0.12621613 0.022657488 0.25214684 0.0076299934 0.009942064 0.2251644 -0.116188064 -0.12649517
0.031808376 0.005105404 -0.06928345 0.03794742 9.192204e-05 -0.11571682 0.027488431 0.006747127
-0.004634457 -0.008850786 -0.10467557 -0.098070286 0.014138449 -0.46819758 0.038511332 0.07462435
-0.108527355 -0.03052305 0.066424176 -0.010156339 0.0006492881 0.037374947 -0.13758929 0.037004855
0.004503827 -0.1656587 0.06045983 -0.08409179 -0.05033504 0.011885157 0.0071297903 0.04498891
0.034837063 -0.010786743 0.16649061 -0.061748993 -0.022733092 0.024877232 -0.04227517 -0.05143545
0.0321389 0.114364594 -0.024895126 -0.05952182 0.055811644 0.12449243 -0.07932713 0.006722537
-0.13736366 0.048710387 -0.017501807 -0.03292417 -0.07344294 0.1800661 0.13512538 -0.052366856
0.005725447 0.0514157 0.055490684 0.14740083 0.083228394 0.0782855 -0.24480993 -0.0020492952
0.064056434 0.18567719 -0.05631644 0.0361639 0.007796802 0.0012171096 -0.07813441 -0.18672934
0.1189291 -0.05711347 -0.08474288 0.002064589 -0.079958335 0.08630724 0.08128134 -0.09196707
0.016378174 -0.069010034 0.036256395 0.035677586 -0.11768004 0.07529111 -0.0011796455 -0.03979785
0.045051463 0.1108656 0.02512372 0.032510035 -0.13882492 0.0058941124 0.0050483732 -0.039606083
-0.11912515 0.07775096 -0.09768656 0.03250825 -0.03201422 0.028946187 0.008375609 -0.1176853
-0.21725813 0.04344412 0.039939646 -0.08964184 -0.17707933 0.08845475 -0.040382054 -0.07589721
-0.05729958 -0.01608693 -0.11964278 -0.16024889 -0.043076392 -0.047017537 -0.10004688 0.0840788
0.080240235 0.0940889 0.1693695 -0.033342868 0.037087046 -0.031897094 -0.049022768 0.0659801
-0.11899946 -0.17335977 0.13421692 -0.15232176 -0.04444188 0.14433308 -0.09614028 -0.020330114
-0.18324746 -0.0006696724 -0.10651893 0.06795345 -0.05047983 -0.045947384 -0.017509198 -0.035316736
-0.10652462 0.012181159 0.049658906 -0.04552728 -0.054070026 -0.0014073863 -0.0124991955 0.0022438907
-0.08806136 -0.0012288247 0.034236018 -0.026817111 -0.060784664 0.039387994 -0.06720164 -0.027552227
0.13271429 0.0040881922 0.083321296 0.10158404 -0.005557236 -0.0278357 -0.20393555 -0.03103412
0.21718569 -0.013390777 0.049799874 0.018155666 -0.076775275 -0.05089371 0.069991075 -0.17302215
-0.04414145 0.09091275 -0.032984365 0.043348845 0.06455344 0.0032703932 0.08272134 -0.08058325
0.18744045 0.14929111 -0.1790462 0.03205726 -0.13075006 -0.047766395 0.09544405 0.1604001
0.12865266 -0.109478615 -0.026641807 0.0072674234 0.14170225 -0.17433988 -0.099417716 0.058526665
-0.09435461 -0.022084303 0.041471906 -0.0061768102 0.06323832 0.036632422 0.08322301 0.056254506
-0.07234757 0.043208893 0.07034496 0.06805057 -0.030759867 -0.046858568 0.050759636 -0.1626091
0.087913185 0.019468112 0.068732716 0.117532134 0.036538973 -0.059941556 -0.036134426 -0.049529836
0.11507967 -0.058693342 -0.29094073 0.22117595 0.02541704 0.004068286 -0.07011441 0.021838594
00000000: c000 2d3b 35e6 e3bd 5084 e33c 346b 1bbd
00000010: bf8e 96bd 520f a83d 6256 1abe e13e c0bd
00000020: 56ea 503e b365 4a3c 338c a73c d375 943c
00000030: 1b24 00bd f39f b6bd a921 113e b345 3c3e
00000040: cd3e 01be 329c b93c 6419 813e 0605 fa3b
00000050: 0ae4 223c 7f91 663e 02f4 edbd f387 01be
00000060: 8049 023d 3c4b a73b 7be4 8dbd c16e 1b3d
00000070: 45c6 c038 f1fc ecbd 6b2f e13c 0117 dd3b
00000080: a5dc 97bb e302 11bc 2560 d6bd 13d9 c8bd
00000090: f4a4 673c 98b7 efbe 0fbe 1d3d a7d4 983d
000000a0: 9743 debd 7a0b fabc 6609 883d c666 26bc
000000b0: fd34 2a3a 7916 193d 35e4 0cbe 6792 173d
000000c0: d794 933b 6fa2 29be baa4 773d 5138 acbd
000000d0: 1d2c 4ebd f6b9 423c 04a1 e93b 4b46 383d
000000e0: 4fb1 0e3d e1ba 30bc 847c 2a3e 83ec 7cbd
000000f0: c03a babc 56cb cb3c bb28 2dbd faad 52bd
00000100: 14a4 033d fc37 ea3d ddf0 cbbc 27cd 73bd
00000110: c09a 643d e3f5 fe3d 4376 a2bd ba48 dc3b
00000120: 0fa9 0cbe 8b84 473d f35f 8fbc 7fdb 06bd
00000130: 4169 96bd 3f63 383e 4f5e 0a3e a17e 56bd
00000140: 889c bb3b 4599 523d 334a 633d 3ef0 163e
00000150: a673 aa3d 2654 a03d 74af 7abe 784d 06bb
00000160: 0530 833d 2922 3e3e 11ac 66bd 9920 143d
00000170: 517c ff3b 6c87 9f3a ef04 a0bd fa35 3fbe
00000180: 1a91 f33d d0ef 69bd ad8d adbd 0e4e 073b
00000190: 32c1 a3bd dac1 b03d d576 a63d 3b59 bcbd
000001a0: 852b 863c 2255 8dbd 9681 143d a922 123d
000001b0: 3c02 f1bd 3a32 9a3d 569e 9aba 1203 23bd
000001c0: e287 383d 810d e33d 42d0 cd3c 3e29 053d
000001d0: 1f28 0ebe 6623 c13b d36c a53b fd39 22bd
000001e0: e3f7 f3bd e53b 9f3d e40f c8bd 5f27 053d
000001f0: 5821 03bd 8e20 ed3c da39 093c fe04 f1bd
00000200: ea78 5ebe 76f2 313d c197 233d 2496 b7bd
00000210: 4954 35be c427 b53d a767 25bd ff6f 9bbd
00000220: f7b2 6abd bdc8 83bc 4607 f5bd 4918 24be
00000230: df70 30bd 7695 40bd 61e5 ccbd 8231 ac3d
00000240: fe54 a43d aeb1 c03d 336f 2d3e 8892 08bd
00000250: 96e8 173d 87a6 02bd 19cc 48bd 9320 873d
00000260: fdb5 f3bd 3985 31be 2970 093e 3cfa 1bbe
00000270: b008 36bd 0dcc 133e 32e5 c4bd 578b a6bc
00000280: 39a5 3bbe f48c 2fba 9926 dabd 2e2b 8b3d
00000290: f0c3 4ebd 5333 3cbd 736f 8fbc 48a8 10bd
000002a0: 9429 dabd 7c93 473c 2367 4b3d d07a 3abd
000002b0: 8878 5dbd 0c78 b8ba 6dc9 4cbc 3d0e 133b
000002c0: 8459 b4bd 8410 a1ba 113b 0c3d 8faf dbbc
000002d0: 57f9 78bd 4e55 213d 03a1 89bd 35b5 e1bc
000002e0: 41e6 073e 3ef6 853b 5ba4 aa3d 4b0b d03d
000002f0: 7919 b6bb b207 e4bc 7bd4 50be 443b febc
00000300: ed65 5e3e fd64 5bbc f4fa 4b3d 31bb 943c
00000310: 5b3c 9dbd ec75 50bd 7b57 8f3d b82c 31be
00000320: aacd 34bd 7730 ba3d 9d1a 07bd 8f8e 313d
00000330: 9834 843d 1854 563b ce69 a93d d508 a5bd
00000340: 64f0 3f3e c5df 183e e357 37be 794e 033d
00000350: 58e3 05be b2a6 43bd 2c78 c33d ec3f 243e
00000360: 86bd 033e 5336 e0bd eb3f dabc 9123 ee3b
00000370: 651a 113e 2786 32be 849b cbbd a8b9 6f3d
00000380: fd3c c1bd 24ea b4bc 72de 293d d766 cabb
00000390: 1883 813d e10b 163d d370 aa3d 206b 663d
000003a0: f62a 94bd cffb 303d 0511 903d 195e 8b3d
000003b0: 1efc fbbc c5ee 3fbd 56e9 4f3d 0083 26be
000003c0: d40b b43d 977b 9f3c bdc3 8c3d b0b4 f03d
000003d0: e4a9 153d 4785 75bd b101 14bd ccdf 4abd
000003e0: e4ae eb3d 6e68 70bd 2ff6 94be f37b 623e
000003f0: 6537 d03c 424f 853b 2598 8fbd dae6 b23c

0.bias f4 [64]
0.08109106 0.15403917 -0.14259122 -0.13398409 -0.1741394 -0.25477406 0.123129584 0.39404786
-0.15540372 0.34716174 0.30266353 0.18669128 0.0049084052 0.033300526 0.1570683 0.5728591
0.8118322 0.3877075 -0.30177754 0.32764754 0.0463883 0.57128984 0.10742569 0.058406614
0.3855848 0.50214785 0.47253013 0.12158856 0.27142575 0.25365642 0.563335 0.046565272
0.02183794 -0.027241562 -0.35231718 0.137473 0.29388952 0.24590908 0.024653371 -0.045858126
0.045830123 0.2122413 0.42753628 -0.65671605 0.14060247 0.082562834 -0.18586539 0.12696841
0.16591181 0.08027583 0.0004169865 0.005645841 0.05194399 0.042881433 0.15254621 0.92742884
0.054865643 0.025746847 0.29973823 -0.008927467 0.1577071 0.031009555 0.22498575 0.32762197
00000000: 1213 a63d 72bc 1d3e 6f03 12be 2033 09be
00000010: 9951 32be bf71 82be 5d2b fc3d a4c0 c93e
00000020: 2722 1fbe 2fbf b13e b7f6 9a3e 002c 3f3e
00000030: b0d6 a03b 2266 083d 83d6 203e e5a6 123f
00000040: 3cd4 4f3f 9981 c63e 9682 9abe 6bc1 a73e
00000050: a801 3e3d 0d40 123f 0002 dc3d c63b 6f3d
00000060: 5f6b c53e c38c 003f 78ef f13e 6c03 f93d
00000070: 51f8 8a3e 41df 813e b936 103f 3abb 3e3d
00000080: 7be5 b23c b229 dfbc eb62 b4be b9c5 0c3e
00000090: b078 963e 97cf 7b3e def5 c93c bbd5 3bbd
000000a0: 5eb8 3b3d c955 593e 09e6 da3e 8b1e 28bf
000000b0: 18fa 0f3e b416 a93d 7f53 3ebe 0204 023e
000000c0: c9e4 293e a867 a43d fb9e da39 bf00 b93b
000000d0: 39c3 543d 71a4 2f3d 1335 1c3e fa6b 6d3f
000000e0: ccba 603d 0deb d23c 4a77 993e 8344 12bc
000000f0: f87d 213e c007 fe3c aa62 663e 11be a73e

2.weight f4 [32, 64]
0.10387869 -0.31958655 0.03423459 0.10064491 -0.0063851182 -0.0067007705 0.10977434 -0.26659015
-0.09510654 0.08010815 0.2249377 0.059736356 -0.05172476 0.092599854 0.13207136 0.053979795
0.14503288 -0.036521375 0.117146544 -0.11715509 0.109072134 -0.0006649118 0.05991922 -0.032673344
-0.17817515 0.1323183 0.19115041 -0.030512553 -0.14794978 0.11171629 -0.06315144 -0.04449526
-0.07835805 -0.031201568 -0.2727574 0.06564936 0.07479482 -0.044987354 -0.106020816 0.031081904
-0.17006113 -0.1407102 0.07777286 -0.15570895 0.12805915 0.062053785 -0.12948428 -0.12321619
-0.0029647483 -0.23406015 0.039527047 0.17132454 0.10057983 0.15889 -0.20495453 -0.029939905
0.058627047 0.017124794 0.2804677 -0.09244219 0.042115137 0.15270902 0.019697342 0.019976156
0.0044349115 -0.023650853 0.06548245 -0.007964684 -0.11323872 -0.04538072 0.027689714 0.07313269
-0.08415566 0.06906722 -0.15939821 -0.08198 -0.0014651356 -0.055667408 -0.1316252 0.08198628
0.14249408 -0.30575338 -0.09082378 -0.015215869 -0.032269605 0.090472676 -0.012578252 0.05590821
0.05938455 -0.21660966 -0.13680202 0.18000086 0.025547992 0.088598184 0.027899703 -0.022925323
0.07260248 -0.03136889 -0.070641756 0.020374332 -0.044617753 -0.054406162 0.09656784 -0.091777146
-0.0038711056 0.019676775 0.10444946 -0.07054133 0.058467682 0.004060542 -0.0078886645 0.0702652
0.05743338 0.06754959 -0.06494032 -0.0017151731 -0.0868028 -0.14795735 0.009123036 0.17105752
0.001445583 -0.18126138 -0.14477873 -0.33788604 0.040137082 -0.08188086 -0.028001208 -0.056423083
-0.06977198 0.06929139 0.0891317 -0.17309473 0.10643012 -0.13989003 -0.11883371 -0.24997193
-0.05186689 0.19358759 0.078430034 0.18267459 0.0661796 -0.18495065 0.06480789 0.0047520148
0.024360593 0.23149937 -0.037776135 -0.16486241 0.1538176 0.20818971 -0.23929055 -0.24800098
0.010023039 0.3115556 0.2535288 -0.09199646 -0.123437814 0.01583362 0.116497725 -0.03319698
-0.15807791 -0.12026234 -0.4992895 0.029911166 0.21865006 0.09516303 -0.10035247 -0.15155917
-0.06784087 0.015763601 0.1278778 -0.18293339 -0.051466133 -0.07667858 -0.1199651 -0.10573198
-0.29765987 0.09578658 -0.13978241 0.007256437 0.09001727 0.13640825 -0.14909007 0.21150512
-0.028833684 0.13596411 0.008149623 0.09466083 0.11094411 0.0139268795 -0.049934376 -0.018227441
-0.021717126 0.09003065 0.009628997 0.059599437 -0.021176955 -0.19129813 0.13049497 -0.031186821
-0.027077155 0.121921115 0.08917764 -0.010388773 -0.025942847 -0.09402579 0.097620495 -0.05442292
0.029685741 -0.10210975 0.08883128 -0.048348073 -0.009856823 -0.08830642 0.0026380855 -0.06488597
0.06397842 0.021457009 0.124453165 -0.044100966 0.02083343 0.1348505 -0.18324327 -0.13731691
-0.0966755 -0.061973292 -0.009846949 0.13866007 0.028402008 -0.09947231 -0.13425492 -0.024894254
0.11428758 -0.15652223 -0.13679627 -0.06607547 -0.11050287 0.119935416 -0.041315146 0.108982444
-0.034182463 0.15853915 -0.075701065 -0.024353283 -0.19160713 0.05137891 -0.12207885 0.15744098
-0.084341735 0.055418912 0.14047483 -0.050031178 0.0792788 -0.12189213 -0.021313705 0.10991659
00000000: 5abe d43d d9a0 a3be 9239 0c3d eb1e ce3d
00000010: 413a d1bb 2392 dbbb 5fd1 e03d 817e 88be
00000020: 38c7 c2bd be0f a43d 1256 663e 1cae 743d
00000030: 58dd 53bd fea4 bd3d b73d 073e eb19 5d3d
00000040: 8083 143e 7097 15bd 87ea ef3d 02ef efbd
00000050: 3661 df3d 7a4d 2eba db6d 753d 7cd4 05bd
00000060: 8c73 36be 737e 073e efbc 433e 76f5 f9bc
00000070: 2680 17be 83cb e43d 8b55 81bd a940 36bd
00000080: 2f7a a0bd 6e9a ffbc dca6 8bbe 2c73 863d
00000090: 072e 993d a944 38bd 7121 d9bd 7a9f fe3c
000000a0: 8124 2ebe 5616 10be 6147 9f3d 2b72 1fbe
000000b0: f021 033e 1c2c 7e3d 8797 04be c558 fcbd
000000c0: 394c 42bb 77ad 6fbe 1de7 213d b36f 2f3e
000000d0: ccfc cd3d 0fb4 223e 9adf 51be 8844 f5bc
000000e0: ea22 703d 4c49 8c3c 7699 8f3e 5552 bdbd
000000f0: ec80 2c3d c15f 1c3e 525c a13c 09a5 a33c
00000100: bc52 913b 6fbf c1bc aa1b 863d 4e7e 02bc
00000110: b4e9 e7bd 22e1 39bd 8ad5 e23c 97c6 953d
00000120: cd59 acbd 1d73 8d3d 4939 23be 21e5 a7bd
00000130: cb09 c0ba 8203 64bd c2c8 06be 6ce8 a73d
00000140: f8e9 113e b58b 9cbe d101 babd fb4b 79bc
00000150: 222d 04bd bd49 b93d 0315 4ebc 0200 653d
00000160: 373d 733d ecce 5dbe d415 0cbe 2552 383e
00000170: 064a d13c f772 b53d eb8d e43c e3cd bbbc
00000180: 9cb0 943d aa7c 00bd a0ac 90bd 12e8 a63c
00000190: 1bc1 36bd ffd8 5ebd 5cc5 c53d a8f5 bbbd
000001a0: 60b2 7dbb 3031 a13c 99e9 d53d f977 90bd
000001b0: cf7b 6f3d 4c0e 853b 753f 01bc 34e7 8f3d
000001c0: 443f 6b3d 7057 8a3d 6eff 84bd a9cf e0ba
000001d0: abc5 b1bd 2282 17be c978 153c b429 2f3e
000001e0: b779 bd3a 959c 39be e040 14be 66ff acbe
000001f0: c866 243d 27b1 a7bd ca62 e5bc e41b 67bd
00000200: 9de4 8ebd a5e8 8d3d ae8a b63d bf3f 31be
00000210: 09f8 d93d 553f 0fbe 175f f3bd a4f8 7fbe
00000220: 6072 54bd d33b 463e ed9f a03d 0c0f 3b3e
00000230: 2c89 873d b463 3dbe 00ba 843d cab6 9b3b
00000240: de8f c73c 2c0e 6d3e 26bb 1abd b1d1 28be
00000250: 5c82 1d3e af2f 553e 9508 75be f8f3 7dbe
00000260: ac37 243c 3784 9f3e 87ce 813e a468 bcbd
00000270: f7cc fcbd 82b5 813c 5c96 ee3d 8ef9 07bd
00000280: 2ddf 21be 1a4c f6bd e0a2 ffbe 4308 f53c
00000290: cde5 5f3e d6e4 c23d 9985 cdbd 5432 1bbe
000002a0: 27f0 8abd ab22 813c 66f2 023e e452 3bbe
000002b0: 27ce 52bd a909 9dbd 43b0 f5bd 028a d8bd
000002c0: e066 98be c12b c43d 1f23 0fbe 68c7 ed3b
000002d0: f95a b83d 9bae 0b3e 11ab 18be cc94 583e
000002e0: 9e34 ecbc 2d3a 0b3e ff85 053c 8add c13d
000002f0: aa36 e33d 912d 643c fd87 4cbd b751 95bc
00000300: 1de8 b1bc fd61 b83d f1c2 1d3c 8a1e 743d
00000310: 4b7b adbc a8e3 43be 79a0 053e 817b ffbc
00000320: e9d0 ddbc c7b1 f93d c4a2 b63d ac35 2abc
00000330: 1886 d4bc 9890 c0bd 41ed c73d 91ea 5ebd
00000340: 832f f33c eb1e d1bd 2ded b53d a108 46bd
00000350: 837e 21bc ffd9 b4bd bbe3 2c3b efe2 84bd
00000360: 1e07 833d 9cc6 af3c 4de1 fe3d 37a3 34bd
00000370: dfaa aa3c 4016 0a3e 20a4 3bbe ce9c 0cbe
00000380: cefd c5bd b5d7 7dbd 1955 21bc e8fc 0d3e
00000390: 54ab e83c 23b8 cbbd 1f7a 09be 09ef cbbc
000003a0: 9b0f ea3d 5d47 20be 5214 0cbe 9352 87bd
000003b0: 544f e2bd b3a0 f53d 123a 29bd 3032 df3d
000003c0: e902 0cbd 1658 223e 2909 9bbd 8980 c7bc
000003d0: a934 44be b172 523d 7a04 fabd 3538 213e
000003e0: 5cbb acbd f1fe 623d a2d8 0f3e 7eed 4cbd
000003f0: ec5c a23d 95a2 f9bd 149a aebc f31b e13d

2.bias f4 [32]
0.4546368 1.5345917 0.4982884 0.13836311 0.5507165 -0.08582414 -0.009355273 0.1353455
0.39074832 -0.0221493 -0.19217904 0.1496084 -0.10358849 -0.087240905 0.3619437 0.060022023
-0.021103354 0.087175146 0.65018815 0.14555325 0.7112262 0.75713336 0.6892696 0.4485913
0.668445 -0.0071639568 -0.090603255 0.5896267 -0.05029207 0.105818115 0.31648633 -0.17718652
00000000: 28c6 e83e 806d c43f a81f ff3e 0faf 0d3e
00000010: c2fb 0c3f 91c4 afbd dc46 19bc 0398 0a3e
00000020: 2a10 c83e 7372 b5bc 95ca 44be f232 193e
00000030: 3426 d4bd 5cab b2bd af50 b93e a7d9 753d
00000040: f1e0 acbc e288 b23d bb72 263f e90b 153e
00000050: ec12 363f 7ed3 413f f973 303f c2ad e53e
00000060: 361f 2b3f a0bf eabb 338e b9bd c7f1 163f
00000070: 0fff 4dbd 2bb7 d83d 7f0a a23e 6270 35be

4.weight f4 [9, 32]
0.14097139 -0.061189078 0.43717378 -0.19790253 0.037747107 -0.17452502 -0.12606277 -0.019159388
-0.0283846 -0.034166086 -0.07430445 0.06210362 0.092736214 0.12502879 0.066286705 -0.016376005
0.17085014 -0.10638329 -0.06422879 -0.007555516 0.06694734 -0.007807096 -0.09863557 0.16719894
-0.0067799194 0.16059768 0.21802387 0.07737029 -0.005772306 0.14809498 0.0779444 0.025934214
0.31100863 -0.093568586 0.21453322 0.03976903 -0.22096792 -0.19027977 0.0025938633 -0.20067252
0.23763642 -0.27085432 0.021349385 0.037698068 0.063793294 -0.050630476 -0.08953759 -0.18061447
0.15750338 0.19000237 -0.30816296 0.28400958 0.13871215 0.3152998 0.19281757 -0.030421874
0.34105673 0.029301623 -0.24177143 -0.4272802 -0.0695554 0.037079133 -0.02467002 0.13905196
0.1781845 -0.0033771752 -0.045951355 0.09684015 -0.20146842 -0.03427613 -0.071439005 -0.115909345
0.21167125 -0.043150812 0.07665968 0.058725342 -0.09109122 0.16101915 0.12104196 -0.30967593
-0.09473679 0.17645559 -0.23016465 0.10189808 0.00071457005 0.26328558 0.18778802 -0.10973882
0.18028045 -0.21487223 -0.13756391 -0.3306131 0.2248856 -0.096912436 0.089623354 0.040798075
-0.063558735 -0.310207 0.02628844 -0.018821647 -0.17204604 0.034357324 0.1744904 0.04220768
0.112049684 0.15999149 0.24662367 -0.11336445 0.0063454737 -0.052184593 -0.075737774 -0.040308606
-0.07956415 0.045504477 -0.13002466 -0.15279953 0.05707867 0.090431504 -0.1944796 -0.14972454
0.055258624 -0.09604863 0.14068292 -0.17586596 -0.15250805 -0.06481069 -0.079856694 0.10753617
-0.009841835 -0.44268838 0.11674861 0.0523933 -0.16070375 -0.068759754 0.13441929 -0.03159236
0.074760966 0.017157678 0.11155124 -0.07239855 0.037574857 -0.0833607 -0.037782032 -0.08400475
0.008942284 0.10432341 -0.0657422 -0.058021057 -0.045777675 0.0024437977 -0.25427195 0.004056147
-0.06856781 0.11902764 0.1180405 -0.23430483 -0.21041614 -0.14150076 -0.2069709 0.043688267
-0.45447615 0.41617247 -0.13033284 0.23641051 0.062060297 -0.12689416 -0.10483112 0.15005317
-0.23088962 0.31296125 0.12784308 -0.5361933 0.0037490171 0.1312387 -0.016962847 0.16952564
-0.03862523 -0.13903217 0.64105207 0.026047977 0.3679407 -0.49549225 -0.27381027 -0.24064364
0.38517204 -0.024942352 -0.36497265 0.06419 0.037333414 0.11136683 0.20768888 -0.29922977
-0.13019736 0.08910046 -0.24813384 -0.0022587255 0.029753745 -0.11903715 0.03286374 0.21743864
-0.03470114 0.045735043 -0.14722788 0.08867091 -0.18375887 -0.025648907 -0.17942898 0.08285883
-0.007547514 0.29155132 0.06287333 -0.12091485 -0.3015246 -0.03970203 -0.055571772 0.22038735
-0.19623816 -0.07583294 0.14028925 0.17765117 0.18295242 0.08680331 -0.30514365 0.14581816
-0.27107418 0.18216866 -0.48783097 -0.19906676 0.12964897 -0.2180931 0.056236435 0.19193491
-0.26630485 0.12621154 -0.2788464 0.067169614 -0.15753034 -0.057493746 0.12761693 0.19907615
-0.16084068 -0.24590525 0.2969984 -0.18314369 -0.39974055 -0.011335961 -0.05051326 0.35581768
-0.21385026 -0.15289608 0.11743213 0.26344708 -0.08869192 -0.084351726 -0.12792547 -0.2476672
00000000: ce5a 103e 66a1 7abd 3ed5 df3e f6a6 4abe
00000010: b69c 1a3d b0b6 32be 9916 01be 26f4 9cbc
00000020: d286 e8bc bdf1 0bbd ee2c 98bd 5e60 7e3d
00000030: 7cec bd3d 8c07 003e 53c1 873d f926 86bc
00000040: 57f3 2e3e 7bdf d9bd 628a 83bd 4394 f7bb
00000050: b01b 893d abd2 ffbb 7201 cabd 3336 2b3e
00000060: 162a debb b873 243e a641 5f3e 5174 9e3d
00000070: 9d25 bdbb 36a6 173e 50a1 9f3d fd73 d43c
00000080: 863c 9f3e e3a0 bfbd 99ae 5b3e dae4 223d
00000090: 6a45 62be b3d8 42be cefd 293b 197d 4dbe
000000a0: f656 733e 6bad 8abe e8e4 ae3c 4a69 1a3d
000000b0: 0fa6 823d e761 4fbd 7c5f b7bd 00f3 38be
000000c0: 9148 213e fb8f 423e 89c7 9dbe b469 913e
000000d0: 8f0a 0e3e fa6e a13e f871 453e 4b37 f9bc
000000e0: fd9e ae3e f509 f03c ee92 77be 78c4 dabe
000000f0: 1073 8ebd 4ae0 173d c818 cabc a363 0e3e
00000100: ff75 363e 9953 5dbb 7d37 3cbd 2154 c63d
00000110: bd4d 4ebe 2165 0cbd 9d4e 92bd e161 edbd
00000120: 59c0 583e e8be 30bd c0ff 9c3d fc89 703d
00000130: 098e babd 34e2 243e d9e4 f73d d88d 9ebe
00000140: 5d05 c2bd c6b0 343e 48b0 6bbe f1af d03d
00000150: fc51 3b3a 5ecd 863e 814b 403e bfbe e0bd
00000160: 709b 383e 7707 5cbe 8edd 0cbe 1f46 a9be
00000170: 6948 663e 077a c6bd 738c b73d e21b 273d
00000180: 152b 82bd 74d3 9ebe db5a d73c db2f 9abc
00000190: d62c 30be 44ba 0c3d 9dad 323e f6e1 2c3d
000001a0: 4e7a e53d cfd4 233e ea8a 7c3e 9f2b e8bd
000001b0: b1ed cf3b 83bf 55bd 681c 9bbd a31a 25bd
000001c0: 87f2 a2bd e762 3a3d 2f25 05be 7b77 1cbe
000001d0: 53cb 693d 2734 b93d a925 47be 6451 19be
000001e0: de56 623d 25b5 c4bd 2f0f 103e 3516 34be
000001f0: 122b 1cbe 78bb 84bd e88b a3bd ec3b dc3d
00000200: a63f 21bc 0da8 e2be e519 ef3d 5b9a 563d
00000210: 868f 24be ead1 8cbd 36a5 093e fe66 01bd
00000220: 471c 993d 428e 8c3c fa74 e43d b145 94bd
00000230: 18e8 193d 04b9 aabd 55c1 1abd af0a acbd
00000240: a882 123c 83a7 d53d d9a3 86bd 7da7 6dbd
00000250: 5f81 3bbd 1f28 203b ef2f 82be 6de9 843b
00000260: 486d 8cbd c3c4 f33d 38bf f13d 9bed 6fbe
00000270: 5477 57be 93e5 10be 2ef0 53be 78f2 323d
00000280: 19b1 e8be 8f14 d53e f975 05be 9915 723e
00000290: f032 7e3d 8bf0 01be b3b1 d6bd 8aa7 193e
000002a0: 546e 6cbe 753c a03e 4ce9 023e f743 09bf
000002b0: 12b2 753b 7063 063e abf5 8abc 2198 2d3e
000002c0: 7d35 1ebd 735e 0ebe fd1b 243f 9162 d53c
000002d0: b962 bc3e 29b1 fdbe dc30 8cbe 496b 76be
000002e0: 4535 c53e e753 ccbc b2dd babe 0c76 833d
000002f0: ecea 183d 4b14 e43d 65ac 543e a534 99be
00000300: 7552 05be 4d7a b63d cc16 7ebe 2007 14bb
00000310: 20be f33c c0c9 f3bd 219c 063d 3ca8 5e3e
00000320: c822 0ebd ab54 3b3d e8c2 16be 1899 b53d
00000330: 492b 3cbe a81d d2bc 3bbc 37be e4b1 a93d
00000340: 2351 f7bb 3746 953e bcc3 803d 34a2 f7bd
00000350: 6f61 9abe 999e 22bd 3a9f 63bd 39ad 613e
00000360: a8f2 48be 4d4e 9bbd fca7 0f3e 30ea 353e
00000370: e157 3b3e efc5 b13d ca3b 9cbe 5b51 153e
00000380: 3cca 8abe 6c8a 3a3e fbc4 f9be 28d8 4bbe
00000390: b3c2 043e cc53 5fbe 2d58 663d 968a 443e
000003a0: 1c59 88be 993d 013e f5c4 8ebe 3990 893d
000003b0: a24f 21be 907e 6bbd 03ae 023e 9eda 4b3e
000003c0: 6bb3 24be 96ce 7bbe 2d10 983e 058a 3bbe
000003d0: cbaa ccbe 77ba 39bc fee6 4ebd bc2d b63e
000003e0: 90fb 5abe ca90 1cbe 4280 f03d 89e2 863e
000003f0: 1ca4 b5bd 99c0 acbd e5fe 02be 789c 7dbe

4.bias f4 [9]
-0.5535956 0.24271731 -0.13309826 -0.2961396 -0.3713178 0.4366899 -0.22759123 0.7337697
0.19469808
00000000: 71b8 0dbf e38a 783e e94a 08be 9c9f 97be
00000010: 5e1d bebe d295 df3e ad0d 69be 55d8 3b3f
00000020: ef5e 473e
