week3_practice_problem/3/model_cifar.pt (torch, 285639 bytes, 10 tensors)

conv1.weight f4 [16, 3, 3, 3]
00000000: af44 b4bd b5fb 1abe 790f 7f3d e505 3cbe
00000010: 864f e53c 3d92 61bd e5df 4f3e 64e5 ba3d
00000020: 7cc0 f43d 35b5 febc b393 85be 1078 8bbe
00000030: a0d6 123e 256f 8cbe e8d9 343d fa25 e13d
00000040: 1d0e 0abe 92a8 9e3c 0f66 bd3d 54a6 1fbc
00000050: cc63 71be c69a 49be 01f2 b3bd 32ef 0abd
00000060: eaaa 013e 51dc eb3c d671 d33d b8fe fe3d
00000070: 62e6 193e 9ad4 9abe f49c f2bc 7210 02be
00000080: 3781 df3d bd52 34be 5e9d ccbd 76d0 443e
00000090: 4130 533e 3d01 1f3e 1dcf 78be 5842 113e
000000a0: e2ed 3e3e 629f 08bc af29 91bc f886 66bd
000000b0: 3668 9a3e b8ee 973e ba49 183e 1ff2 41be
000000c0: d9e0 9dbd 8b56 fbbd c481 15be 5f39 5ebe
000000d0: eb61 31be 384c b53e 6ba3 263e 5010 503e
000000e0: 6989 10be 67ea bf3d 531f 40be 8c68 933d
000000f0: 7638 4d3e ea8e 1fbd 7662 11bd 3780 dbbd
00000100: 312d 7bbd ea20 52be 1fcc 4f3e d5fb 62be
00000110: 5bc8 473d 0325 9f3b 4846 4b3d 1ac3 8cbe
00000120: e531 3a3e 9f09 e03b f01e 24be 8855 1c3e
00000130: 6850 4f3e 2e9d 5ebe 5ced 663d 5c68 f33d
00000140: 6eea c6bd e7f3 1e3e 1c39 943d 43c7 21be
00000150: d45b a13d e111 6a3d ff70 73bd 3b2e 373d
00000160: da1a 5bbd d630 50be 5173 7e3e aa36 86bc
00000170: da93 82be dcb5 1f3e 9ab8 5bbe 3509 d0bc
00000180: 2e9b 173e e80b b03d cbf6 21be 5a6d 6fbd
00000190: ddeb 0b3e ac63 713b e258 6a3e 7579 8fbd
000001a0: 11d5 2fbc 94eb 8fbd 537d 46be a754 ad3d
000001b0: cbe6 4fbd b630 c3bc 1032 cd3d 3e1d 8bbe
000001c0: d615 88be 53d4 08be b3e2 f13d 587c 493c
000001d0: a1f9 3d3e c5ac 26bd 4301 263e 78a7 ef3d
000001e0: 4026 57bb b41d 5bbe 1241 89be fd1e 16bd
000001f0: 9ca7 1f3d 5a0b 20be 0bed 253e 1166 513e
00000200: 1238 663d 547f 16bd dc59 773d c939 c33c
00000210: f1e1 5d3d 8632 3d3e 8990 0b3e 7ec6 703d
00000220: 847f d33e 2814 ce3d fa30 87bd 582a 823d
00000230: ab4a 803c c392 9ebe bfce 08be 08f7 22be
00000240: a712 693e 103b 883e 173c 893e 088c 33be
00000250: 2187 0ebe d967 89be c7c9 94be 4d56 94bb
00000260: 8e0b 2ebe fb49 9a3d 934f 583e 3067 9f3e
00000270: a922 51be 285d 8cbb f2f6 14bc 826d f5bd
00000280: 59d2 febd 83aa 5dbe 6a48 153e b89a 4bbd
00000290: 34ea 88bc d968 78bc 7026 253b 8b50 1abe
000002a0: 81ad b8bd b226 c4bd 1150 753b 5195 13be
000002b0: a363 08bd 0912 31be dd3d 0b3e e33a 453e
000002c0: f95d d63d 0a84 e13c 3b4a 19bd 0b9d 623d
000002d0: 3228 983d 27e9 653e 44c6 303e 2ff9 343d
000002e0: 6e10 a13d 25bb 613c 6e0a 143e e1c4 843d
000002f0: d452 633e e847 3abe 62e6 e43d c6a1 a6bd
00000300: b7d5 cdbd 3ddb 17bd 5f52 afbd 6ec6 e23d
00000310: 77fd ce3d 6f7e 3dbe c457 fe3d d0d8 053e
00000320: f842 953d 2da1 ff3c af62 013e ef8a e8bb
00000330: 6f34 d7bc b3e7 28be be46 ca3d 8028 383e
00000340: 69b3 333d 2412 a33e 9e22 9f3e 0cf5 743d
00000350: a6e2 9f3e 063d 6c3e fcfc 1cbd f739 043e
00000360: 3e7e e53d adfb 4dbd 78e2 2abc ff37 753d
00000370: 957f 593e 24e4 8abd aa75 abbb fceb 36be
00000380: e9d3 e6bd a2dd 0b3e 4425 8e3d 7a79 92bb
00000390: e0ca 693e 45b9 593d dda8 6d3e 2df7 053e
000003a0: 6e85 e3bd 7cc1 7c3d 7200 c43c e26c a3bc
000003b0: bd78 613e 83d9 b03d 2c7f 863e 6e3a 183e
000003c0: 7d56 e4bc 5a98 03be 1b00 e03c dd61 7ebd
000003d0: f811 563d 439e 37bd 9bd5 40bd e98a fcbd
000003e0: 5ce4 933d c9e9 2abe d907 8fbb b879 53ba
000003f0: ac14 32be 66bb 8fbe 6329 9bbe 35f3 90be
-0.08802163 -0.15135081 0.062270615 -0.18361624 0.027992021 -0.055071104 0.20300253 0.09125784
0.11950776 -0.031092266 -0.26089248 -0.27240038 0.14339685 -0.27428547 0.044153124 0.109935716
-0.13481946 0.01936749 0.09247982 -0.009744246 -0.23573226 -0.19687948 -0.08786393 -0.03391952
0.12662855 0.028791578 0.10324447 0.124509275 0.1502929 -0.30240327 -0.029615857 -0.12701586
0.10913318 -0.17609687 -0.09990953 0.19220147 0.20623876 0.15527816 -0.24297757 0.14185464
0.18645433 -0.008338781 -0.017720072 -0.05628106 0.30157632 0.29674315 0.14871874 -0.18940018
-0.07708902 -0.12272366 -0.14600283 -0.21701573 -0.17322509 0.35409713 0.16273277 0.20318723
-0.14114918 0.093708806 -0.18761949 0.07197675 0.2004107 -0.038954653 -0.03549429 -0.107178144
-0.061322395 -0.20520368 0.2029271 -0.22166379 0.04877506 0.004856707 0.049627572 -0.274926
0.18183096 0.0068370844 -0.16027427 0.15267003 0.20245516 -0.21739647 0.056378707 0.11885139
-0.09712683 0.15522729 0.07237455 -0.15798669 0.07878843 0.057145957 -0.059433933 0.044721823
-0.053492405 -0.2033113 0.24848677 -0.016383488 -0.25503427 0.15596718 -0.21457139 -0.025395015
0.1480529 0.08596021 -0.158168 -0.058453895 0.13664193 0.003683309 0.22885469 -0.07005588
-0.010731951 -0.07027355 -0.19383745 0.08463412 -0.05075721 -0.023826938 0.10019314 -0.27170748
-0.2657916 -0.13362245 0.118108176 0.012297712 0.18552257 -0.04069211 0.16211419 0.11701864
-0.0032829195 -0.2139805 -0.26807457 -0.036650646 0.038978204 -0.1562933 0.16203706 0.20449091
0.056205817 -0.036742523 0.06038843 0.023831265 0.054170553 0.18476304 0.13629355 0.058783047
0.41308224 0.10062438 -0.066011384 0.06355733 0.015660604 -0.30971345 -0.13360117 -0.15914547
0.22761022 0.2660756 0.26803657 -0.17533886 -0.13918735 -0.26837042 -0.29060194 -0.0045268894
-0.16996595 0.07533642 0.21124105 0.31133413 -0.20423378 -0.004283566 -0.0090920795 -0.119837776
-0.124424644 -0.21647076 0.14578405 -0.0497081 -0.01671324 -0.015161716 0.0025199912 -0.15069787
-0.09017468 -0.09577693 0.0037431757 -0.14412428 -0.033298146 -0.17292036 0.13597818 0.19260745
0.104671426 0.027528781 -0.037424307 0.05532555 0.07429542 0.22452222 0.17263132 0.044182952
0.07864462 0.013777529 0.14457104 0.06482864 0.22199565 -0.18191493 0.111767545 -0.081363246
-0.100505285 -0.037074316 -0.08560633 0.11073004 0.10106938 -0.18505262 0.12419084 0.13070989
0.07288164 0.031204784 0.12635301 -0.0070966403 -0.02627012 -0.16494636 0.09876774 0.179842
0.04387227 0.31849778 0.31081098 0.059804007 0.31227607 0.23070154 -0.038327202 0.12912737
0.112057194 -0.050288845 -0.010429971 0.059867855 0.21240075 -0.067817956 -0.0052325325 -0.17863458
-0.112708874 0.13658765 0.069407016 -0.0044700475 0.22831297 0.053155202 0.23208947 0.13082571
-0.11109434 0.06170796 0.023925994 -0.01994938 0.22018714 0.08635237 0.262689 0.14866039
-0.027873272 -0.12851086 0.0273438 -0.06210505 0.05226323 -0.044828665 -0.04707871 -0.123311825
0.072212905 -0.16690744 -0.004364949 -0.0008067149 -0.17390698 -0.2807266 -0.30305013 -0.28310552

conv1.bias f4 [16]
00000000: 1526 a43e 254b db3e b324 903d ab5d b4bc
00000010: 08c5 573e 91b7 0c3c 33c4 dfbc c75d 923e
00000020: 46a0 98bd dbc0 a13e 6e48 b13e 68aa e83e
00000030: dde3 b13b 0876 32be 7455 f03e 1102 453e
0.32060304 0.42830768 0.0703825 -0.02201732 0.21071255 0.0085886875 -0.027315235 0.2858717
-0.07452445 0.3159245 0.34625572 0.4544251 0.0054287747 -0.17427838 0.46940196 0.1923907

conv2.weight f4 [25, 16, 5, 5]
00000000: bb51 3ebc f09f ca3c 9537 6d3d 8ae4 033d
00000010: 73dd e2bc db9f ddbc b486 73bc fb80 3b3d
00000020: cea7 4dbb 77e1 093d 2064 bb3c 72be b33c
00000030: 9faf 23b9 e54d c63c 8e3c 783d 8463 743c
00000040: 35d5 f13c 8127 613d 854d 79bc a3d5 d4bc
00000050: a09c 3abd a5fc 293c 21d6 88bc 0faf f5ba
00000060: 2709 8e3c b433 0dbd 9cd6 233d 3769 c13c
00000070: 9435 c13c 5a64 8abc 3c95 743c f36f f33c
00000080: 1454 0e3d af18 14bc 1725 2ebd dc24 393d
00000090: ead8 a93c 7a45 91bd b068 83bd ce51 dfbc
000000a0: 1853 d23b a4b8 e4bb 1d0e 8ebd eedd 6c3b
000000b0: 4158 87bd efdd 02ba 758c 55bd 7ca3 25bd
000000c0: 70a6 82bd 8946 1cbd 09d1 9c3d a45d 823d
000000d0: 7d1a 7c3d 0486 8a3d a5e4 203d d3f6 0f3c
000000e0: 68ba 23bc f453 653d 736b aa3c 5340 aebc
000000f0: 1766 9e3d df31 c73c e4b7 813d cf3f 30bc
00000100: 976a bfbc 397b c73c 6ba3 b53c 4222 3e3d
00000110: c4b2 80bb 7821 413d 12b5 563d 526c 3c3d
00000120: eb25 893d 9f6e 903d 7f69 323c f356 543d
00000130: 021e e93c e637 02bd 9c43 e93c 9502 0d3d
00000140: ca83 d9bb f6d1 2ebc dd14 6a3d e1e0 4d3c
00000150: c899 013d f4fe eb3b 4af9 483d 70c7 0f3d
00000160: 9c0e 7f3d c823 0bbd 4044 8d3c ffa6 db3c
00000170: 94ca 47bc 8ac0 ddbc afb3 4f3d 7a3d 503d
00000180: 8d9a c2bc b423 3e3d 553a 78bc c193 0abd
00000190: 81d3 023d 3e74 c4bc 9720 fa3b 1533 013d
000001a0: 9e1f c0bc 2029 2e3d 48d2 a13c 6743 35bd
000001b0: 41f1 fe3c f928 a4bc ce75 413d 8375 69bb
000001c0: c9fa efbb 7043 2cbd 8b14 fd3c 0495 d0bc
000001d0: c3d8 9ebc 4581 df3c 1906 debc 2bba aebc
000001e0: 409b 133d 77bb 363d 9f36 553c f992 1a3d
000001f0: 55ae 9b3c 2c71 b6bc e3cd a53c 9709 08bd
00000200: c646 4e3d 1317 303d 1fc7 dcbc 4169 0b3d
00000210: bfc3 c4bc e6fd dd3c 90cd 403d 660c 8cbc
00000220: 2bdb fbbb cc33 593d fa54 853c fd1d 333d
00000230: d285 06bd 9753 8e3c b73c 4f3d 69c5 8f3d
00000240: 5163 f73c 4c09 10bc 5084 d7bc 8872 0d3c
00000250: 0be3 48bb f0f0 0f3b 7a37 793d 095a 253d
00000260: fda7 2c3c 3058 03bd 441e 06bd 6edd 0abc
00000270: 1f04 323d 355d f93b 8c37 2d3c b0dd 03bd
00000280: e1d2 5b3c 01c2 3abc af2e ed3b d9c6 d7bc
00000290: e31c cf3c b416 01bc 6082 f53c 9d4c 08bd
000002a0: 300d 1c3d 16aa 6abc 5ca3 123d a4f4 1f3a
000002b0: c519 11bc 6217 17bd aa5b 723c 054b 5d3d
000002c0: 7c01 583c c6f4 8a3c f172 963c 7fa9 023b
000002d0: 568e f13c 50c0 323d 662f c83c 2d24 e6bc
000002e0: 23b5 083d 29b3 67bb b921 043d ee65 cfbc
000002f0: 82ab 16bd d43d 44bd 2e5c ae3b 5924 b63a
00000300: 7bc1 aabc c1eb 86bd effc 6f3c c02d 1b3d
00000310: f804 93bc f395 53bd 0011 9fbc 5d12 94bd
00000320: 5272 93bc e739 563d 003d b23b 3888 3c3d
00000330: b863 953c ca61 02bd 5338 dc3c 3630 78bb
00000340: 8ce0 e3bc 3d41 003a 637e 393d d4e0 e8bc
00000350: ecf4 45bd 2505 54bb 59a0 083d 8caa a7bc
00000360: 8ec7 72bc cadb 11bd 0929 efba 3e9d 8bbc
00000370: 4a17 153c 4fb5 57bc 02a1 62bd 9880 6d3c
00000380: 30b0 11bd c26f f83b 52a2 8f3b 80d0 5b3d
00000390: 7ece 843d 56d2 94bc 1989 54bd 8c4c f03c
000003a0: aa83 713d c03d 4d3c e94c 433d 6ad5 0fbd
000003b0: ee40 eb3c 4b0d 1c3c ca0c 243d ac5b f93c
000003c0: 43cd 50bd 8448 bd3c a5c7 8e3d d4da 223c
000003d0: 61f5 8d3d e9a9 0dbd aad0 a9bc 493a 14bb
000003e0: e04b ad3d 0789 8b3d 3dcb b13c aeea bbbc
000003f0: 0aa1 2e3c 7e39 3bbd a0fc 163c b316 e03b
-0.011616166 0.024734467 0.057914335 0.032200374 -0.027693486 -0.027053764 -0.014863659 0.045777302
-0.0031380537 0.033662286 0.022874892 0.021941397 -0.00015610315 0.024207065 0.060604624 0.0149163045
0.02952061 0.054969314 -0.015216236 -0.025980776 -0.045559525 0.010375177 -0.016703667 -0.0018744188
0.017338349 -0.034473136 0.03999959 0.02360974 0.023585118 -0.016893554 0.014928158 0.029716467
0.034748152 -0.009039088 -0.04251584 0.045201167 0.020733315 -0.0709333 -0.06416452 -0.027260687
0.006418597 -0.0069800187 -0.06936286 0.0036143023 -0.0660863 -0.0004992177 -0.052135903 -0.040439114
-0.06379402 -0.038153205 0.07657058 0.06365517 0.0615487 0.06763843 0.039280552 0.008786875
-0.009993173 0.055988267 0.020803189 -0.021270907 0.07734316 0.024315773 0.063339025 -0.010757401
-0.023366256 0.02435075 0.02217265 0.04641939 -0.0039275605 0.04715106 0.052418776 0.04600174
0.066966854 0.07052349 0.01088941 0.051840734 0.028456692 -0.03179159 0.028474621 0.03442629
-0.006638025 -0.010670176 0.057148803 0.012565822 0.031640798 0.0072020236 0.049065866 0.035102308
0.062269792 -0.03396967 0.017244458 0.026813028 -0.0121942945 -0.027069349 0.05070847 0.05083988
-0.023755336 0.046420768 -0.015150626 -0.033832315 0.031939987 -0.02398121 0.0076332795 0.031542856
-0.023452576 0.04251969 0.01975359 -0.044253733 0.031120898 -0.020039069 0.047231488 -0.003562302
-0.007323597 -0.0420565 0.030893585 -0.025461681 -0.01939047 0.02728332 -0.027102517 -0.021329006
0.03603673 0.044612374 0.013013511 0.03773782 0.019004026 -0.022270761 0.020239776 -0.03321227
0.050360464 0.042990755 -0.026950417 0.034035925 -0.02401912 0.027098607 0.04707104 -0.017095756
-0.007686039 0.053027913 0.016275872 0.04372977 -0.032842465 0.017373843 0.05059501 0.07020075
0.030198725 -0.008791279 -0.026308209 0.008633263 -0.0030652906 0.0021963678 0.060843922 0.040369067
0.010538098 -0.032066524 -0.032743707 -0.0084756445 0.04346096 0.007609988 0.010572325 -0.03219384
0.013416977 -0.011398793 0.007238231 -0.026339935 0.025282329 -0.007878948 0.029969394 -0.03327619
0.038098514 -0.014322778 0.035800323 0.0006101823 -0.008856242 -0.036887534 0.014792362 0.054026622
0.013183948 0.01696242 0.018365355 0.0019937453 0.029486816 0.043640435 0.024436664 -0.028093422
0.03337587 -0.003535459 0.032258723 -0.025317159 -0.036784656 -0.047910526 0.0053210473 0.001389633
-0.020844212 -0.06587935 0.014647706 0.037885427 -0.017946705 -0.051656675 -0.019417286 -0.07230065
-0.017998848 0.052301314 0.0054394007 0.046028346 0.018236026 -0.03183154 0.026882326 -0.0037870533
-0.027817033 0.0004892534 0.045286547 -0.028427519 -0.04832928 -0.00323517 0.033356044 -0.020467065
-0.014818085 -0.035609998 -0.0018246482 -0.017042752 0.009099791 -0.013165786 -0.05532933 0.014495991
-0.035568416 0.007581682 0.0043833638 0.053665638 0.06484698 -0.018166702 -0.05188856 0.029333375
0.058963455 0.012526929 0.04768077 -0.035115637 0.028717484 0.009524654 0.04005126 0.03043922
-0.050977003 0.023105867 0.06971673 0.009939868 0.06931568 -0.034585867 -0.020729382 -0.0022617748
0.08461738 0.06813245 0.021703357 -0.022939052 0.010658512 -0.045709126 0.009215504 0.0068386435

conv2.bias f4 [25]
00000000: 220e f33b 09c1 13bd d6ab a9bd 362f ae3c
00000010: c4d7 ba3d 7f3e 233c 68ed 14bc 6b10 91bc
00000020: a485 66bc 5d2f 213d 4460 023d 8c8e 973d
00000030: a36e a53c 5de9 bcbc 26a4 dfbc 9218 a0bc
00000040: d409 02be a8db f53d 4d99 bbbd 734b aa3b
00000050: f8da 173e a4ae d83c c7f5 b53d 0e16 85bd
00000060: ae49 ac3d
0.0074174562 -0.036072765 -0.08284728 0.021262746 0.09123185 0.009963631 -0.009089805 -0.017708024
-0.014069948 0.03935181 0.031830087 0.074002355 0.020194357 -0.023060495 -0.027299952 -0.019542966
-0.12699062 0.12004787 -0.09160099 0.0051969825 0.14829624 0.026450463 0.08884769 -0.06498347
0.08412491

fc1.weight f4 [128, 400]
00000000: 2c6f 94bc 9dd4 70bc 99a5 f1ba 8305 02bd
00000010: 3434 65bd c3f3 983c fb4c 443b 91ca 9dbb
00000020: 4c66 08bc dafd 0dbd 747b 2a3c d270 ea3c
00000030: 243b d43c 2edf 603d cb45 293d b3e1 7b3d
00000040: 0cd7 da3c 746e a63a 2aae 943c f788 00bd
00000050: a01e e73c 396c 8e3b 5ffe dcbb 4fa8 e83c
00000060: f329 313c b75a 3e3c cded b1bb 66f5 51bd
00000070: 2958 a73c 6114 c53c 5796 4bbb 2d5d 28bd
00000080: 2e34 943c 4f8a 5fbd 4b99 cc3c 5432 0a3d
00000090: 820b acbc b440 d7bb 3f3d f8bc 3ec1 1f3d
000000a0: 5e6a 80bc d95d d7bb fd96 ee3c 4be1 083c
000000b0: 1eae 503d 0fdd 293d 99d4 fcbc d7a6 ffbc
000000c0: fda0 703d 5da6 283d 6716 85bc 4a54 53bc
000000d0: 2891 c43c 992a 22bb a098 83bc fe9c 333c
000000e0: 8927 a93c b290 cabc 8266 953c 74a4 0c3c
000000f0: 1bfa 2fbc f710 323d 66de 5b3d 1cb8 3d3c
00000100: 4a8d 093d cc9a 853c 68ba 4cbd 87e4 de3b
00000110: 7615 3f3c 702e 263b 0680 70bd 37b6 44bd
00000120: d4f7 49bd a0e9 1ebd a474 87bd 6c2c 42bd
00000130: fb4d 523d c5da 49bb ea5e 763d 6f45 093e
00000140: 9eb6 e3bb 675f 1c3d 572e 473d f988 c73a
00000150: a823 113c 496c a03c e132 393d c080 ea3c
00000160: 03fd b2bb 90b2 853d 71b8 5a3d 6a47 bbbb
00000170: b076 183d 245e ecbc 0254 4b3d 8cc5 55b9
00000180: ff4f 48bc 0301 e63b 9423 f03c 98c2 383d
00000190: 8725 e0bc cefd 1fbd e5ca 1a3d f496 49bc
000001a0: 34dc 04bc b90e a53c cd00 9fbc 5398 20bd
000001b0: ea91 ec3c 4673 2bbd 0a8d 70bc 7e61 33bd
000001c0: 4b44 083c 3c35 2abd af13 053b 1265 34bd
000001d0: 1dc2 0b3d bedf 20bd 4707 5ebc 0f0e a9ba
000001e0: 1dfb 1c3d 7978 aabc 53cd ce3c 7043 36bd
000001f0: 3ba0 27ba efee 07bc 5008 c93c d04a 213d
00000200: a45f ad3c 20f4 5ebd 867d d8ba a17e 2fbd
00000210: eb26 b2bc 7e78 11bc 3b2f 30bd 4125 96bc
00000220: ae7e c6bc c010 e73c 4db5 163d 3dad 0ebc
00000230: df3e 763d 1028 333d 7f30 cdbb 0266 babc
00000240: 30cb 733c f315 03bd 37a0 89bc 767e c6bc
00000250: 6058 9f3c 06c3 073d 4097 e63b de97 b9bc
00000260: 0afc 77bc 166f debc adb5 f43c a314 fbbc
00000270: 68bc 0b3d 3e23 143d d7a8 293d fef9 dbba
00000280: 0031 8bbc 91c9 b8ba 476d 173d 0acd 37bd
00000290: 7904 bc3c 244d 58bd a000 79bd 7b71 5fbc
000002a0: 5a33 a6bb 686f 3abd 6cdd 903c b2c4 d3bc
000002b0: adb5 56bd e732 92bb d0b7 b63c 770f 25bd
000002c0: fc13 aabc e9a4 3d3d 4bf2 243d f4c1 443c
000002d0: 4947 d2bc 4762 86bc c010 fcbc 5d8d 6b3c
000002e0: 4cf7 5cbd 7118 47bd c30d 0e3d 93a9 333c
000002f0: cf2f 80bd 529e 093d 2a5c 573c 1667 4cbc
00000300: 16d1 92bb be75 ae38 2a37 c33c bcb1 2cbd
00000310: d7cd f7bc f299 b43c c44b 5f3d be24 0abd
00000320: c5fe c23c 720c 6abc a625 08bd 818c 36bd
00000330: 8135 b83c 7891 8bbc 6e90 7d3d c78d 1dbc
00000340: 9e0c 47bd 5fee 293c 1b2b f6bc 2293 3ebd
00000350: 3415 2b3c f058 db3c 0435 fdbc 1205 1abd
00000360: f184 413d ea04 c63b ba6f 1ebd c672 f2bc
00000370: 8109 1e3d 97cc f2bc c1f0 f03c dd41 253d
00000380: 1f00 2ebd 397e 343d 6d5d 3d3c 542b b93c
00000390: 6b27 fa3c 3c78 3dbd 56fb 56bd 7ed4 edbc
000003a0: 1c96 8f3c 2a58 85bc 2fd1 c03c 6723 e0bc
000003b0: 5bf8 ec3c dba8 dc3c d575 823c ccaf 0d3d
000003c0: c8f4 daba f555 17bd e002 4fbd 920a e73b
000003d0: 853c ebbc f0fc 4d3c d201 0f3d b70d 7f3c
000003e0: 9a99 1fbb 7685 b33c 0b8a 51bd 6617 5cbb
000003f0: 15cd 0ebd e900 3e3d fbe6 6b3c 77f4 80bc
-0.018119417 -0.014699128 -0.0018436193 -0.031743538 -0.055957988 0.018670922 0.002995311 -0.0048154076
-0.008325171 -0.03466592 0.01040541 0.02861825 0.025907107 0.05490034 0.041326325 0.06149454
0.02671387 0.0012697713 0.018149454 -0.03138062 0.028212845 0.0043463972 -0.0067441906 0.028400568
0.010813224 0.011618308 -0.0054299594 -0.05125942 0.02042778 0.024057569 -0.0031064951 -0.041104484
0.018091287 -0.05457526 0.02497544 0.033739403 -0.021001581 -0.0065689925 -0.030302642 0.03900265
-0.01567572 -0.006572467 0.029124731 0.008354495 0.0509473 0.041470584 -0.030863093 -0.031207485
0.05874728 0.04117428 -0.016246034 -0.012898514 0.023994997 -0.0024744628 -0.016063988 0.010962723
0.020648735 -0.0247272 0.018237356 0.008584131 -0.010740782 0.04347321 0.053678893 0.01157954
0.03358201 0.016309164 -0.04998246 0.006802145 0.0116628315 0.0025357269 -0.058715843 -0.048025336
-0.049308613 -0.03879702 -0.06614044 -0.047405645 0.0513439 -0.0030800563 0.06014911 0.13405393
-0.00694926 0.03817692 0.048628177 0.0015223316 0.008858599 0.019582884 0.045214538 0.028625846
-0.0054622903 0.06528199 0.053398553 -0.0057153003 0.037222564 -0.028853483 0.049640663 -0.00020386855
-0.012226104 0.0070191636 0.02931384 0.045107454 -0.027361644 -0.039060406 0.03779115 -0.012304056
-0.008109141 0.020148622 -0.019409562 -0.039207768 0.028878171 -0.04185798 -0.014682064 -0.043794148
0.008317064 -0.041554675 0.0020305922 -0.0440417 0.034120668 -0.039275877 -0.01355154 -0.0012897867
0.038325418 -0.020809399 0.02524439 -0.044497907 -0.00063944206 -0.008296712 0.024540097 0.039377987
0.021163769 -0.054432034 -0.0016516901 -0.042845372 -0.021747073 -0.008878825 -0.043013792 -0.01832831
-0.024230327 0.02820623 0.036793996 -0.008708295 0.060118552 0.04373938 -0.0062618847 -0.02275372
0.014879987 -0.032003354 -0.01680003 -0.024230223 0.01945132 0.033144973 0.0070370734 -0.022655424
-0.015135774 -0.02715258 0.029871786 -0.030649489 0.034115225 0.036166422 0.041420784 -0.0016782878
-0.016991138 -0.0014098157 0.03696945 -0.044873275 0.022951351 -0.052807942 -0.06079161 -0.013637896
-0.0050720396 -0.0455164 0.017683707 -0.025850628 -0.052419353 -0.0044616344 0.022304446 -0.04029795
-0.020761482 0.04629985 0.04027013 0.012009133 -0.025668757 -0.016404284 -0.030769706 0.014376965
-0.05394678 -0.048607294 0.034681093 0.010965723 -0.06259119 0.03359825 0.013144532 -0.0124757495
-0.0044804914 8.318898e-05 0.023830015 -0.04216169 -0.03024952 0.022046063 0.054515615 -0.033726446
0.023803124 -0.014285194 -0.03323903 -0.04456759 0.02248645 -0.017037138 0.061905317 -0.009616322
-0.048596017 0.0103717735 -0.030049851 -0.046527036 0.010442067 0.026775807 -0.030909069 -0.03760249
0.047245923 0.0060430663 -0.03868077 -0.029595744 0.038583282 -0.029638572 0.029411675 0.040346015
-0.042480584 0.044065688 0.011557919 0.022603668 0.030536374 -0.046257243 -0.052485786 -0.029031988
0.017527632 -0.016277391 0.023537247 -0.027360631 0.028927019 0.026935985 0.015925327 0.03459148
-0.001670503 -0.03694721 -0.05053985 0.0070508206 -0.028715381 0.012572512 0.034913845 0.015567235
-0.0024353028 0.021914225 -0.05115704 -0.0033583282 -0.03486355 0.046387587 0.014398332 -0.01574157

fc1.bias f4 [128]
00000000: a7a0 c43b e2de b03d cb8a 1abd 4cb4 73bc
00000010: e024 043c 34a2 a43c cdfd 1dbd b0aa fcbc
00000020: 4ca8 50bd 6fb2 2bbc 6961 d7bc ad08 43bc
00000030: 07f7 293d 3232 febc 19b2 a6bc df31 ab3d
00000040: e77f 8b3c 3d05 b2bc c7af 80bc 0376 06bd
00000050: 78c1 6cbc 6c14 193d 1297 91bc 788c adbc
00000060: 479b cc3b 1fd9 c6bc 0383 1bbd 6160 ba3c
00000070: 84da d03c fe83 af3d c42f 233d 0eb7 00bd
00000080: c2aa 5fbd 398c 243d ab60 0d3c db93 4dbc
00000090: 08b7 10bc c7be 26bd 961f 87bc 6651 dcbb
000000a0: 2ae6 50bc d5a1 663d 2ec0 573d f2b4 d4bd
000000b0: a613 2a3d ad28 553c 6e76 45bd 72ff 77bd
000000c0: 1a0d 7fbd 7f69 223d e263 0a3d 5120 3bbd
000000d0: 945d aebc f297 6abc 33bc 7bbc a5d6 fa3c
000000e0: c370 e63b 7f08 fdbc 7c65 eb3c 2c8b 26bd
000000f0: 15df 913c 998f 2fbc b553 103d 0ee7 af3c
00000100: 17f0 97bc cc23 5e3c 3681 433d a6b0 693c
00000110: caaf 593c 77eb 363d 613b c03c df5c 9c3c
00000120: fe7c 3a3d 7853 c03c 22e1 713d f8f1 0bbc
00000130: b61b 1bbd eb9e 30bc 254d 12bd 1f62 bbbc
00000140: aa50 e53c 9873 2a3d 8c8b 8b3c 7e80 f23c
00000150: a5a6 383d 2c44 183d 180d d43c 89ea 0abd
00000160: 94c3 a23c 6fb0 9c3c f388 11bd 2641 b7bc
00000170: d4fa 9abc 6f21 c73b bb0f 05bd fa25 823d
00000180: d09e f7bc e165 2ebd abd8 fdbb f55c 8c3c
00000190: e36c 113d c400 dd3c de12 3bbd d9e8 473d
000001a0: 1296 4a3d b079 88bc 0be1 0abd 5429 3cbd
000001b0: 349a 073c a3aa 52bd dced a4bc bed5 ce3c
000001c0: 01ae 633b 5cb1 c03c 545c a5bc 7a08 28bc
000001d0: d825 7a3d 0b1d d03c 4f60 8fbc 94c8 ff3c
000001e0: f221 dabc 08c9 07bc a334 893b 61fc 113a
000001f0: bf47 35bd 639a 4e39 b706 a63c 925e 20bc
0.0060005966 0.086362615 -0.03773002 -0.014874529 0.008065432 0.020096876 -0.03857212 -0.030843109
-0.05094175 -0.010479554 -0.026291566 -0.011903924 0.04149535 -0.031029794 -0.020348595 0.083591215
0.017028762 -0.021731013 -0.015708817 -0.03282739 -0.014450423 0.03737299 -0.017772231 -0.021185145
0.0062440964 -0.024273453 -0.03796674 0.022751035 0.025494821 0.085700974 0.039840475 -0.031424575
-0.054606207 0.04017279 0.0086290045 -0.0125474585 -0.008832701 -0.040709283 -0.016494554 -0.0067235706
-0.012750188 0.05630668 0.05267351 -0.10386075 0.041522644 0.013010186 -0.048208646 -0.060546346
-0.062268354 0.03965139 0.033786662 -0.045685116 -0.021284856 -0.014318453 -0.015364694 0.030619929
0.007032485 -0.03088784 0.028734915 -0.04066007 0.01780657 -0.010715389 0.03523608 0.02147248
-0.018547101 0.013558339 0.047730647 0.014263308 0.01328654 0.04465815 0.023465814 0.019087253
0.045529358 0.023477301 0.059052594 -0.008541577 -0.037868224 -0.0107800765 -0.035718102 -0.022873936
0.027992565 0.041614145 0.017034315 0.029602285 0.0450808 0.03717439 0.02588515 -0.033915076
0.01986865 0.019127099 -0.035530996 -0.022369932 -0.018918432 0.0060769836 -0.032485705 0.063549
-0.030227095 -0.042577628 -0.007746776 0.01713417 0.035504233 0.026977904 -0.04567229 0.048806045
0.049459524 -0.016659588 -0.033906024 -0.04593785 0.008276511 -0.051432263 -0.020132951 0.025248405
0.0034741166 0.023522072 -0.020185627 -0.010255927 0.061071247 0.025404474 -0.017501978 0.031223573
-0.026627515 -0.008287676 0.004187183 0.00055689184 -0.044257876 0.00019703204 0.020266874 -0.009788172

fc2.weight f4 [64, 128]
00000000: 8021 6f3d 19ad 223d 8947 623a b08d af3c
00000010: ce90 7abd af51 98bd 2531 41bd 8df6 cdbd
00000020: f9f5 29bd f324 b13d 1d78 523b 7d64 bbbd
00000030: 2517 d8ba c388 ad3c 5e56 2e3c 48d2 edbd
00000040: afae 333a 8930 b63c e30a 473d 3729 9a3d
00000050: 8e48 913d 5f85 523c 567e cfbd 4852 48bd
00000060: d8b9 a33d 8153 66bc fb41 cb3c 3f5c a03d
00000070: 6914 5ebd a9e4 95bd f34a 8d3d bcbd 933d
00000080: 522b 373e cf31 cc3c cac1 ea3b f4ae 9d3c
00000090: c60a 22bc b635 273d 1eee 8abd af83 9f3c
000000a0: 8df7 9e3d 3ca7 08bc c134 68bd 316c a43d
000000b0: cfb2 c63c 9933 623c 6c1e 27bd 6cab 6f3d
000000c0: cd24 b83d b7f0 283d 5584 86bd 6050 2f3c
000000d0: fd05 963d 5133 03bd 9d14 943d 60bc 02bd
000000e0: f420 873d 69e0 033e 7249 36bd b35b 133b
000000f0: ee3d 5fbd 2cc2 05bd c458 56bd b9f8 0cbd
00000100: 2130 4f3d 870f 353c fcc7 dd3c 4b42 9eba
00000110: b78a b9bd d33f ec3c 59c8 b1bc 7d26 86bd
00000120: e838 693d bc27 8bbd 40c5 563b 96aa b23d
00000130: 95cf 573d 82f9 a1ba 280e c03d 543d ffbc
00000140: c40b 1fbd 29bb 8ebd 241a bfbb f727 df3d
00000150: fbef d0bd ebac e03d 040d ac3d f7a6 a33d
00000160: 3f58 5f3d 8325 203e d02c b0bd 7cbc 373c
00000170: 68c8 3b3b 84f5 8a3d 5ba4 56bb 089e 74bc
00000180: 7261 1bbb fe4e 2e3d d81a 013d e15e a6bd
00000190: 16f3 183d 3a81 d8bd b816 ddbd 3897 b8bd
000001a0: 8292 853c d020 313c 42f0 65bd b324 adbd
000001b0: efee c83d 3dbf 6c3d c76a b6bc 30c4 9fb9
000001c0: a66c ea3c 5bbb dfbd 9224 af3d f3e2 633b
000001d0: e6dd 87bd c234 93bd 3939 f9bc 5f80 c9bd
000001e0: 63e4 883d cb8e 953c 0921 78bd d2e8 723d
000001f0: 9571 89bd ac6a 07bd 8e06 893d 838a 073d
00000200: aade 3e3d 6bdc 4f3c 6472 7abd dac0 db3d
00000210: 33cb 63ba 293d d639 c806 66bd 25c1 563d
00000220: 2143 bdbb 3dde 01bd 066c 633d 6b65 d03b
00000230: ed92 db3c d981 ddbd c585 c73c 142a 363d
00000240: 5f53 873c f0ab bf3a d5cd ac3d 7fac 9c3d
00000250: 28cb 97bd 772a 573b 17c0 873d 797c b5bc
00000260: cb80 02bd 00f9 c2bc bbac 3f3d 931a 063d
00000270: 147d 143d 354e 8cbd 284c e8bc bc26 b7bb
00000280: 0c0d 853d 5d1f 75bd 92bf 87bd ef36 1cbd
00000290: 70f1 8a3b 843b eebb d3f4 c23d c992 033b
000002a0: b5bc 39bd d961 5f3b 9060 2cbd b226 55bd
000002b0: bb39 553b f825 28bd 7f66 d43c fe4f 8d3b
000002c0: 0863 f3bb 4dbe 603d ba13 0ebd 7f2c afbc
000002d0: 6192 a23d d2e4 873c 15fe b33d 8930 53bd
000002e0: e021 9abd c64f 0dbd 7bd2 783d d705 08bd
000002f0: 0a48 54bd a064 9dbd 1e79 df3c 28b0 753d
00000300: 50d2 9c3c 4fe3 11bc c086 87bd ed9d 19bd
00000310: 41a1 01bd ca31 24bd baa5 97bd 5fe4 ce3d
00000320: ebd6 623d 3d64 03bd edf2 963d 0213 1e3d
00000330: 2ca3 93bd 74a0 813d 5b87 673d baa1 833c
00000340: 153c 68bc 7e2c e3bc 1a04 9bbd b323 c93d
00000350: b791 d8bc 67cf 96bd a076 6a3d ca01 053d
00000360: 37ab 4f3d fc68 8a3d d307 5dbd bcd2 80bb
00000370: 52c2 a13d a01c 303d 14a1 2bbd 5cbe fdbc
00000380: 61ac 4fbd 394a 39bd ea1d ab3d beba 43bd
00000390: c160 983d 6e63 503d 2ca7 f43a 4e56 8bbd
000003a0: b12f 86bd 40e8 c13d e3b8 7e3d 5d62 45bc
000003b0: 07ec f73c d8f3 60bc 274c a7bc 2da7 b43c
000003c0: f4c6 eab8 cb40 393d d5d0 2c3d ddec 673d
000003d0: 35eb c4bc 946f 43bd e5ea 653d 16f3 fd3b
000003e0: 7518 d33c 8dc7 8abd 063d 83bc 4f61 583b
000003f0: c25b 243d e5e5 ac3c 526e 23bd 5f7e 0bbd
0.058381557 0.03971586 0.00086318754 0.021429867 -0.061173253 -0.07437455 -0.04716601 -0.100567915
-0.041494343 0.08649626 0.003211505 -0.09150026 -0.001648639 0.021183377 0.010640709 -0.116123736
0.0006854338 0.02223994 0.048594367 0.07527392 0.07093917 0.012849181 -0.101315185 -0.048906595
0.07994431 -0.014057995 0.024811735 0.078300945 -0.054218683 -0.07319004 0.06899061 0.07213923
0.17887619 0.024926094 0.0071642147 0.019248463 -0.009890264 0.040822707 -0.067836985 0.019471971
0.0776206 -0.008340653 -0.056690935 0.080284484 0.024255184 0.013806247 -0.040800497 0.05851309
0.08991394 0.04124519 -0.06568209 0.010700315 0.07325361 -0.03203136 0.07230494 -0.03191793
0.06598082 0.12878574 -0.044503637 0.0022485077 -0.05450242 -0.03265588 -0.052330747 -0.034416888
0.05058301 0.011051065 0.027072899 -0.00120742 -0.09059661 0.028839028 -0.021701979 -0.0655031
0.056939036 -0.06794688 0.0032771379 0.08723943 0.0526882 -0.0012357684 0.093777 -0.031157173
-0.03882958 -0.06969292 -0.0058319736 0.108962946 -0.10202023 0.109704815 0.0840092 0.079908304
0.054527517 0.1563931 -0.08602297 0.011214372 0.0028653387 0.0678511 -0.0032751772 -0.014930256
-0.0023709205 0.0425558 0.03151974 -0.081235655 0.0373412 -0.10571523 -0.10795349 -0.09013218
0.016305212 0.010811046 -0.05613733 -0.084542654 0.09811198 0.057799567 -0.022267712 -0.00030473014
0.02861626 -0.10924407 0.08551897 0.0034772723 -0.06634121 -0.07187797 -0.030422794 -0.09838938
0.06684186 0.018256566 -0.06057838 0.059304066 -0.06711117 -0.033060715 0.06690703 0.03309108
0.046599068 0.012686829 -0.061144248 0.10730143 -0.0008689642 0.0004086283 -0.05615881 0.05243029
-0.0057758247 -0.031706084 0.05552294 0.006359746 0.026803458 -0.10815782 0.024355778 0.044473723
0.016519247 0.0014623385 0.08437697 0.076500885 -0.07411796 0.0032831708 0.06628435 -0.02215408
-0.031861108 -0.023800373 0.046795588 0.032740187 0.036252096 -0.06850854 -0.028356627 -0.0055893343
0.06496629 -0.059844363 -0.06628336 -0.038138326 0.0042402074 -0.0072702784 0.09519353 0.0020076504
-0.04534598 0.0034085421 -0.042084277 -0.052038856 0.003253563 -0.041051835 0.02592778 0.0043125143
-0.007427577 0.054868985 -0.03468678 -0.021383522 0.07938076 0.016588602 0.08788697 -0.05155996
-0.075259924 -0.034499906 0.060747605 -0.033208694 -0.051826514 -0.07685208 0.027279433 0.05998245
0.019143254 -0.008904292 -0.066174984 -0.037504125 -0.031647924 -0.040086545 -0.07404657 0.10102152
0.055380743 -0.032078017 0.07370553 0.038592346 -0.07208857 0.06329432 0.05652557 0.016068328
-0.014174481 -0.027731176 -0.07569142 0.09821262 -0.02643667 -0.073637776 0.057242036 0.03247241
0.050700393 0.067583054 -0.05396254 -0.0039313715 0.07898392 0.04299605 -0.041901663 -0.03097456
-0.050701503 -0.0452368 0.08355315 -0.047785513 0.07440329 0.050876074 0.0018665544 -0.06803571
-0.06552065 0.09468126 0.06218804 -0.012047377 0.030263914 -0.013730012 -0.020422054 0.022052372
-0.000111950474 0.045227807 0.042191345 0.056622375 -0.024037937 -0.04771383 0.056132216 0.0077499254
0.025768498 -0.067763425 -0.01602031 0.0033016985 0.04012657 0.021105716 -0.03990013 -0.034056064

fc2.bias f4 [64]
00000000: 5ab1 393c 2e92 92bd 2540 55bd 8563 7ebd
00000010: fd0b 9dbd ed28 1a3d ee87 213b 9bcc c33d
00000020: 3ca9 403a 1aa2 0dbd 712e 033e 7a40 b13c
00000030: 5802 db3b 6771 063e 4b5a 243d 148b a3bc
00000040: 695d 0d3e 7f15 a43d e586 2e3d b07c 88bc
00000050: cb71 5c3e 3971 f83d 95c7 34bc 8ab1 d73d
00000060: 0fee 50bd a7d7 d3bc d179 36bd 986d 24bc
00000070: a0c2 2f3d 47bd a33d a3da af3d 93e2 cebc
00000080: 4d1a 2c3a a031 a3bd f911 fdbc 7a42 7cbd
00000090: d8d5 d73b f017 abbd 0e92 853c 32ba ab3d
000000a0: 2a16 6ebd f123 bc3c 472f da3c b9cf 643c
000000b0: faa2 123e 23c9 703d 422a 6abd 176f d8bd
000000c0: 4035 8cbd e9a0 29bd 7d7f 1f3e 3b74 e3bc
000000d0: 2d15 c9ba ad74 143e d53c 663d d050 0e3e
000000e0: 1bbb 853b 6651 92bd 629c 903d d05d 5b3c
000000f0: 2f3b 8bbd b409 8d3d 93a8 873d 8128 a2bd
0.011333788 -0.07156788 -0.052063126 -0.062106628 -0.07668302 0.037636686 0.002464767 0.0956051
0.00073494366 -0.03457842 0.12810685 0.02163719 0.006683629 0.13129197 0.040125173 -0.019963779
0.13805164 0.080119126 0.042609114 -0.016661018 0.21527784 0.121309705 -0.011033912 0.1053191
-0.05100828 -0.025859667 -0.044549767 -0.010035895 0.04291022 0.07995086 0.085866235 -0.025254523
0.00065651984 -0.079684496 -0.03089236 -0.061586834 0.0065867715 -0.08354175 0.016304996 0.08385123
-0.058126606 0.022966357 0.026633872 0.013965541 0.14319983 0.05878557 -0.057169206 -0.10568064
-0.06846094 -0.04141322 0.15575977 -0.027765384 -0.0015341394 0.14497633 0.056210358 0.13898015
0.0040811426 -0.07144432 0.07061078 0.013389066 -0.06798398 0.06886616 0.0662395 -0.07917882

fc3.weight f4 [10, 64]
00000000: dc25 f13d a742 973d 6ddc 003e f423 1fbe
00000010: 2104 913c fd38 523e 0736 483e a650 58bd
00000020: 5e7c 3f3d 0b33 8fbc f48a 3e3e 9609 f93d
00000030: be60 8f3d ad64 473e 30c6 d83d cbd8 9fbd
00000040: d9dc acbd 0dbe 11be 6778 673d 4a54 a6bd
00000050: 9113 1ebe 9f16 af3d 006e 083e 1378 43be
00000060: 75b1 063d 45d1 5abe a466 8a3c e025 053e
00000070: a205 3b3c edce 9bbd 0e50 d0bd 5bd8 61b9
00000080: 6c1a d3bd 7d41 983d 5cdb 403e e0b5 d5bd
00000090: 48ed 2d3d b452 9f3d 79e8 dfbd 1ae1 0f3e
000000a0: d4b3 58bc 06ec af3d 3635 ab3d 5524 c23b
000000b0: 141a a8bd f001 4dbe e0a3 943c 038a 94bd
000000c0: 60fe c8bd be15 9bbd 46fd ddbc 15d5 72bc
000000d0: 2111 ca3d 1322 673e 10a3 9dbc aef6 5d3e
000000e0: 2183 33bc b6da a6bc 8de5 223e 2dda acbd
000000f0: 14ed 46bd 0a35 443c e1d4 b93d b2e3 7c3c
00000100: 1e3a 993e 9454 9abd d9d6 95bd 15f1 30be
00000110: 8060 9cbd 606d 293d 7627 0e3e a3c1 ae3c
00000120: 3892 4cbe 4bf3 14be 2803 98be a358 353e
00000130: 0637 0abd 1e0a 85be 5182 943d 77ae 0b3e
00000140: c669 dbbd 2000 7f3d 7a3c 10be e97f d33d
00000150: 0a57 83be 7e31 1c3e 99c4 233e 19e6 26be
00000160: 3ef7 7b3d cf81 0ebd df9d 2f3e db53 49be
00000170: f4db bb3d 4658 61be ae9e 17be 828e 74bd
00000180: 4f2c 35be fd7c b13d 526c 2fbd 5e6c 0fbd
00000190: 3abb 32be 137f 973d eddb 4cbe 3287 bebd
000001a0: b667 c5bc e1c7 163e 53db 753d d456 65be
000001b0: bcab 66bc ede0 833d 060d e4bd c904 8a3e
000001c0: e408 0d3e 1d2d b0bd af63 8abc 8763 853e
000001d0: 3770 7c3c 391f 05bc cd04 f83d f685 bb3d
000001e0: eb66 f13c ad97 0c3e b2ba f53d a5ff d23d
000001f0: c3e8 213e dc43 4abc 50ac e9bd ea4f 923e
00000200: c207 06be 1b67 2d3d 3323 3f3d ed36 9ebd
00000210: b4a1 cd3d b600 b13d 05b3 d53d b36e 3cbd
00000220: e8d0 343e 3476 02be 758e 023c a647 75bd
00000230: 63eb 303e 1f5b 8a3e 49f0 7a3d a753 c6bd
00000240: 45b7 743d 4eb5 ecbc dbae 323e 58cc 97bd
00000250: 49e8 093e fa59 023e 7d57 34bd 1f8a f03c
00000260: 176c 3b3d c94f 4abd f49b aabd 3de0 2dbd
00000270: a45c 23be e321 b23d 53ee ef3d b1e0 0ebe
00000280: 16f2 0a3e 27ab e13d fc40 8ebd a56f 0abe
00000290: 9a71 133e 01d5 9a3d da6a c93d 681f bcbc
000002a0: 0b3e e33d 533c 1abe d033 dc3d c97d 8c3d
000002b0: b7b4 0a3e a83b 00be a9e4 70bd eb5c 95bd
000002c0: 90e9 06be cee7 8b3c db61 063e 7938 32bd
000002d0: 455f 143e efb6 4f3d c672 a13d 8362 443d
000002e0: 99e9 f23c 67c8 733c 41c0 e23d 52a9 ffbd
000002f0: b65a 983d 559f 8d3d acd3 d93d c77b 653d
00000300: b2f0 15be d814 0fbe 5edf 133d 7732 e53a
00000310: e5c6 ed3c ebd2 3abe f3a9 273d 3b85 06bd
00000320: 25d2 0b3e ade8 4fbd cfcf 9f3d af50 8dbd
00000330: 3b10 1fbe 8e4e 93bd 2d3c 72bd ca0d 2e3c
00000340: 3288 aebd 2cdf 363e e385 153e 49c6 143e
00000350: b081 273e ccca 8a3b e8ae 443d a5da 553d
00000360: 51e7 763d 4572 f2bc 1556 06bc 8bea 843d
00000370: d046 52bd 488b f33d d9ab 213e 2dd7 1cbe
00000380: f4cd cd3d 7747 d83d d379 4bbd 9430 573e
00000390: 3e22 e53d 3386 2dbc 1067 89bd 2504 04be
000003a0: a3d4 f13b 9c6f 9ebd 9a59 a53d 405d 273e
000003b0: 13ed f6bd 50bc 0a3e 8cea 153d 540f a8bd
000003c0: e2ec efbb e89c c73b b2d2 4abd d72d d1bd
000003d0: cd0e df3c 2ce4 25be b199 c63d c62a 36be
000003e0: 0018 83bb 3842 f8bd b8c2 fdba beb3 2c3e
000003f0: 5033 6c3c 71ed 2abd 7554 b7bc 2771 e0bd
0.11774799 0.0738576 0.12584086 -0.15541059 0.017702164 0.20529552 0.1955186 -0.052811287
0.046749465 -0.017480394 0.18607694 0.121600315 0.07000874 0.19471999 0.10584676 -0.07805022
-0.08440561 -0.14232655 0.05651131 -0.081215456 -0.15437151 0.085492365 0.13323212 -0.19088773
0.03288408 -0.21368892 0.016894646 0.1300273 0.011414917 -0.07607827 -0.10171519 -0.00021538271
-0.10307774 0.07434366 0.18833679 -0.104350805 0.042462617 0.07779446 -0.109330125 0.14050713
-0.013226468 0.0858994 0.083597586 0.0059247413 -0.08208099 -0.2002027 0.018144548 -0.07252886
-0.09814143 -0.07572506 -0.02709831 -0.0148213105 0.09866548 0.22571592 -0.019242793 0.21676132
-0.010956557 -0.020367961 0.15907879 -0.08440051 -0.04856594 0.011975536 0.090738066 0.015435146
0.29927152 -0.07535663 -0.073163696 -0.17279465 -0.076355934 0.041364074 0.1388224 0.021332568
-0.19977653 -0.14545934 -0.29689908 0.17709593 -0.03374388 -0.2598428 0.072514184 0.13640772
-0.10713534 0.06225598 -0.1408557 0.10327131 -0.25652343 0.15253255 0.15992965 -0.16298713
0.061515085 -0.034791764 0.17150067 -0.19660895 0.09172812 -0.2200633 -0.14806625 -0.05970622
-0.17692684 0.08666418 -0.04282791 -0.035015456 -0.17454234 0.07397284 -0.2000577 -0.0930313
-0.024097305 0.14724685 0.060023617 -0.22396404 -0.014079031 0.064393856 -0.111352965 0.26956776
0.13772923 -0.08602355 -0.016893236 0.26052496 0.0154076135 -0.00812512 0.12110291 0.091564104
0.02946802 0.13729735 0.119985 0.103026666 0.15811448 -0.0123452805 -0.11409819 0.28576595
-0.13088897 0.042334657 0.046664428 -0.0772532 0.10040608 0.08642714 0.10434536 -0.04600401
0.17657816 -0.12740403 0.007968535 -0.059882782 0.17277293 0.27022645 0.06126431 -0.09683924
0.059745092 -0.028895047 0.17449515 -0.07412022 0.13467516 0.12729636 -0.044028748 0.029362736
0.04575738 -0.049392495 -0.08330527 -0.04245018 -0.15953308 0.0869787 0.117153786 -0.139529
0.13568911 0.11018973 -0.069459885 -0.13519152 0.14398804 0.075601585 0.098348334 -0.022964194
0.11095818 -0.15062074 0.1075207 0.06859929 0.135455 -0.12522757 -0.058811817 -0.07293113
-0.13175035 0.017078307 0.13123266 -0.043510888 0.14489467 0.05071157 0.078832194 0.04794551
0.029652404 0.014879323 0.11071826 -0.12483467 0.07439177 0.06915156 0.10636076 0.056026246
-0.14642599 -0.13972795 0.03610169 0.0017486353 0.029025504 -0.18244521 0.04093356 -0.032841902
0.13654383 -0.050759006 0.07803308 -0.06900155 -0.15533535 -0.071927175 -0.05913942 0.010623405
-0.08522071 0.17858571 0.14601855 0.14528765 0.16358066 0.004235601 0.048018366 0.05221047
0.060279194 -0.029595504 -0.0081992345 0.06490048 -0.051337063 0.118918 0.15788211 -0.15316458
0.10049048 0.10560506 -0.049676728 0.21014625 0.11188172 -0.010591078 -0.06709111 -0.12892206
0.0073800846 -0.077361315 0.08073731 0.16344166 -0.12056937 0.13548398 0.036600634 -0.082060486
-0.00732194 0.0060917027 -0.04951734 -0.102138214 0.027228737 -0.16200322 0.09697283 -0.17789754
-0.0040006638 -0.12122005 -0.0019360399 0.16865441 0.014416531 -0.041730348 -0.02237914 -0.10959082

fc3.bias f4 [10]
00000000: aa4d 83bd adb1 4dbe 0b3a da3d 9825 e43c
00000010: 8ddd 263e e5dc 20bd 1be5 573d 1f80 85bd
00000020: 4984 0e3e 21d5 a1bd
-0.064112976 -0.20087309 0.10655602 0.027849957 0.16295452 -0.03927316 0.052708726 -0.06518578
0.1391765 -0.07901979
