week3_practice_problem/1_mnist_mlp/trained_weight&biases.pth (torch, 439383 bytes, 6 tensors)

fc1.weight f4 [128, 784]
000000 b7 c6 54 3c ae 45 01 bd 9c 3c 31 3c 4a 9b bb 3b
       0.01298683 -0.031560592 0.010817673 0.005725299
000010 f7 b0 a8 3b 8c 8a 0a 3d 93 20 b1 ba dc 52 56 bc
       0.005148049 0.033823535 -0.0013513736 -0.013081279
000020 1a e9 b0 3c ca 2e df bb 3e e5 a3 3c 4e 37 3e 3c
       0.021595526 -0.0068109976 0.020006772 0.011609865
000030 0b 4f eb bb 0f 3c 09 bc 29 72 80 3c b7 ab 5c bb
       -0.0071810535 -0.0083761355 0.015679436 -0.0033671686
000040 93 c9 e3 ba 97 4d 03 3c bc 83 b4 bc 2e 31 73 3c
       -0.0017378799 0.008014104 -0.022035472 0.014843268
000050 38 f9 5e bc 2e 52 0c 3c 5e 4d e0 3c da 81 cb bc
       -0.013609223 0.008564515 0.027380642 -0.024842191
000060 07 08 ad 3c 2e 92 8e bb ca 44 10 3b 8e 86 29 bc
       0.021121992 -0.004350922 0.0022013658 -0.010347022
000070 4e 9e bd bc 4e c5 e0 bc 81 6e ec bc fc 6a 05 3c
       -0.023146775 -0.027437832 -0.028861286 0.008143183
000080 0f e9 03 3d 8c 5f 41 3c e4 e9 9b 3b ce f8 93 3c
       0.032204684 0.011802565 0.0047581065 0.018062975
000090 3e 63 0f 3d eb 75 8a bc fc f1 7f bb b0 69 8d 3c
       0.035006754 -0.01690193 -0.0039054146 0.01726231
0000a0 4a 4b cd 3c d2 2f b9 bc 71 c9 c7 bc 86 f4 a4 3c
       0.025060315 -0.02260581 -0.024388047 0.02013613
0000b0 30 ed 93 3a e6 6a 7c 3c 53 3c af bc e4 97 d5 bb
       0.0011285897 0.015406346 -0.02139107 -0.006518351
0000c0 a5 cc b3 bc 9e c5 bb bb 94 5f a6 3b 94 69 c6 bc
       -0.021948168 -0.005730345 0.005077312 -0.024220265
0000d0 95 8d a8 bc 47 c9 11 bd 85 d1 2e 3c b8 71 f5 ba
       -0.020575324 -0.035592344 0.010670071 -0.0018725907
0000e0 e7 83 8d bc 1c 71 c0 bb dd e6 28 3c b6 fd 11 3d
       -0.01727481 -0.0058728587 0.010308948 0.03564235
0000f0 0e df 2f 3b fb 38 d9 39 b2 84 c2 3b 26 45 b1 3c
       0.0026835832 0.0004143192 0.0059362287 0.021639418
000100 ab 03 0c 3c 1c 6c 0c 3d f6 a2 15 3c 2d 30 9d 3c
       0.008545796 0.03428279 0.009133091 0.019188011
000110 aa c0 0c 3d 9d 01 24 3b c6 14 28 bb 95 74 b8 bb
       0.034363426 0.0025025376 -0.0025647148 -0.005629132
000120 19 98 55 3b 9c 00 64 bc b4 c7 8a bb 17 1a f3 3a
       0.0032591878 -0.013916161 -0.0042352322 0.0018547204
000130 eb 78 e4 3c 62 00 fa 3c 39 92 af bb 13 6a 0e 3d
       0.02788969 0.03051776 -0.0053580073 0.03476913
000140 70 79 97 3c f3 3e 09 bc 23 58 eb 3c 8c 1a 06 3d
       0.018490523 -0.008376825 0.02872855 0.03274016
000150 c7 4d bd bc 6e 2f e4 bb af 63 d8 3c f2 54 d0 bc
       -0.023108376 -0.006963662 0.02641472 -0.02543113
000160 e2 b0 90 3c 66 d9 95 bc a8 04 94 bb 6a 18 3b bc
       0.01766247 -0.01829214 -0.0045171566 -0.011419395
000170 b6 3d 1f bc 0f 64 9c bc cd 1a 6d 3c 5f a9 15 bc
       -0.009719303 -0.01909068 0.014471722 -0.0091346195
000180 4e 06 ce 3c 2c 8d 67 bc 29 08 08 3c 36 f9 bf bb
       0.02514949 -0.014132779 0.008302727 -0.0058585657
000190 87 ce d3 bc 96 5b a3 3c 6f ea 87 3c fe c7 99 bc
       -0.025855316 0.019941133 0.016591279 -0.018772122
0001a0 7b d6 92 3c 77 b7 be 3c 36 0b ac 3c 58 6f 1e bc
       0.017924538 0.023280842 0.02100144 -0.009670101
0001b0 24 a8 f8 3c 54 59 ff 3c 63 53 35 3b 06 38 0a 3d
       0.030353613 0.031170525 0.002766811 0.033744834
0001c0 e7 e2 ca bc d1 47 eb 3c 0d 12 ae bc 84 14 62 3c
       -0.024766399 0.028720768 -0.021248842 0.013798837
0001d0 ab 45 e3 bb 7a 2c 1e bc d4 12 90 bc fa c4 ba 3b
       -0.0069357953 -0.009654159 -0.017587103 0.005699751
0001e0 da 52 05 3c 55 e2 f9 bc da 08 18 3c 2c a3 05 3c
       0.008137429 -0.030503431 0.009279454 0.008156579
0001f0 2d 2a 8a bc 47 ad 13 3d 12 40 37 bc 2a f8 8b 3c
       -0.016865814 0.036053922 -0.011184709 0.017086107
000200 62 42 00 bd 6f 3f cb b9 30 34 56 3c 8c 75 e1 3c
       -0.031313308 -0.0003876644 0.013073966 0.027521871
000210 55 a9 20 bc 4d dd c8 3b c6 90 19 bd 0b d7 a7 bc
       -0.009805997 0.0061298967 -0.037491582 -0.020488283
000220 c6 fd c2 3b ff dc eb 3c 0d c0 a8 bc 01 90 6f bb
       0.0059506623 0.028791903 -0.02059939 -0.003655434
000230 1f 4d 02 bd 07 e2 bf bc e2 a2 74 3c 11 a0 d8 bc
       -0.03181183 -0.023423208 0.014931412 -0.026443513
000240 3f 8f 24 bc 0e be f3 3c 67 1d 07 3d 82 57 08 3d
       -0.010043918 0.029753711 0.032987025 0.03328658
000250 9e 1e 79 3b 85 6c 2a 3c 79 15 2b bd 21 87 71 3c
       0.0038012634 0.01040185 -0.041768525 0.01474169
000260 73 2b f3 3b 94 cb f7 3c 4e e7 cd bc 71 04 bf bc
       0.007420951 0.03024844 -0.025134709 -0.023317548
000270 02 5a 77 3b 90 a9 ca bc f4 37 16 bd e1 b5 13 bd
       0.0037742858 -0.024739057 -0.036674455 -0.036062125
000280 e8 c9 01 bd a1 0b 04 bd 54 28 0c bd 8d 98 9c 3c
       -0.031686693 -0.032237653 -0.034218147 0.01911571
000290 d3 6b bb 3b bd fa 9f bc 43 6f f4 bc 60 a7 8b bc
       0.0057196408 -0.019528741 -0.02983821 -0.017047584
0002a0 0a 6c f3 3c a8 79 9a bb 5d 28 a9 bc ec 67 b3 bc
       0.029714603 -0.0047142096 -0.02064913 -0.02190014
0002b0 2f a4 c1 bc 64 89 f7 3c 5f 77 fb 3c 9d d3 00 3d
       -0.02363786 0.03021688 0.030696569 0.03145181
0002c0 1a 1d 88 bb 0d c0 09 3d 6e f2 ad 3c e6 59 00 3d
       -0.00415386 0.03363042 0.021233764 0.031335734
0002d0 58 14 ca 3c 0f c9 55 bc dc 67 89 bc ea 19 02 bd
       0.024667904 -0.013048424 -0.016773157 -0.031762995
0002e0 36 9e e1 3c dd 07 c5 3c f5 f3 21 bd 48 53 a4 bc
       0.027541261 0.024051601 -0.039539296 -0.020059243
0002f0 bc 33 2c bd 76 5a e0 bc 3c 85 1c 3c 78 6f c8 bc
       -0.042041525 -0.027386885 0.00955325 -0.024467215
000300 76 c5 25 bd 63 75 f1 3a 6c a1 7d 3b 84 c2 1b 3c
       -0.040471517 0.0018421825 0.0038700951 0.009506825
000310 b1 22 f0 3c 2e 5d 98 3c 7b a7 85 3c 4a dd 29 bc
       0.029313417 0.018599119 0.016315212 -0.010367701
000320 5c 9f 24 bc a8 d1 c9 3b 07 59 23 bc 16 e7 16 3d
       -0.01004776 0.006159026 -0.009969956 0.036841474
000330 11 7b 1c 3d a1 79 39 3d 3f f3 39 3d 13 8d 87 3c
       0.038203303 0.04528201 0.045397993 0.016546762
000340 c9 c5 0a 3d c1 53 12 3a fd 0c 88 bc 8b b4 c8 3c
       0.03388003 0.00055819383 -0.016607756 0.024500152
000350 89 62 90 3b 7e dc 66 3c 0b 11 da 3c 8e a6 52 bd
       0.0044062776 0.014090655 0.026619455 -0.05142837
000360 fc 7e 20 bd bd be 99 bc a9 44 53 bd e8 8b 24 bd
       -0.0391836 -0.018767709 -0.05157915 -0.040172487
000370 4e 63 e4 bc 87 b9 ad bc 10 90 c3 3c 80 9e 03 bd
       -0.027879383 -0.02120663 0.023872405 -0.03213358
000380 be 94 d4 bc e5 03 e2 bc c6 e4 00 3c 2e 36 7e bb
       -0.025949832 -0.027589748 0.007867044 -0.0038789618
000390 c2 ed f6 3c 59 87 16 3d 6e 94 29 3d e3 09 73 3c
       0.030142669 0.03675017 0.04140132 0.0148339
0003a0 c3 7d 29 3c c6 15 56 bc 28 89 dc 3c ce ef 70 3b
       0.010344925 -0.013066715 0.02692087 0.0036764028
0003b0 5e 20 94 3c 5d 6a 5c 3c 43 df cb 3c 30 95 8c 3c
       0.01808184 0.013453093 0.024886733 0.017160982
0003c0 be 2e 8e bc ef 4c 76 bc 93 48 0c bd b1 41 d5 bb
       -0.017356273 -0.015032991 -0.0342489 -0.006508075
0003d0 8e d0 65 3c e8 ca 61 bd 66 d3 c1 bb d2 0c 26 bd
       0.014026774 -0.055125147 -0.0059150932 -0.04053957
0003e0 45 98 62 3c 0d 15 14 bd d9 a2 9b 3c 21 ce 60 bc
       0.013830249 -0.036152888 0.01899855 -0.01372102
0003f0 c7 e8 b3 bc b2 42 5d 3c 6f 0b 23 bc 0d 3f 16 3d
       -0.021961583 0.013504671 -0.009951456 0.036681224

fc1.bias f4 [128]
000000 08 5d 35 3d 1c 69 16 3d 15 ad a0 3a 29 8d 98 3c
       0.044278175 0.036721334 0.0012258614 0.018621998
000010 42 ec 72 bd 52 ee 3a 3c 18 6d e3 3c 32 d9 a0 3d
       -0.059307344 0.011409359 0.02776198 0.07853927
000020 47 d7 35 bd 82 9b c0 3d c1 25 52 3d 59 da 61 bc
       -0.044394758 0.09404661 0.051305536 -0.013784968
000030 79 f9 40 3d 92 e8 82 3d 77 62 29 bd 90 ac 8b 3a
       0.047112916 0.063920155 -0.04135367 0.0010656286
000040 74 ad 99 3d 90 11 f7 3d 87 56 c1 3d fb c3 5d 3d
       0.07503787 0.12063897 0.09440332 0.05414198
000050 a1 b7 95 bd 7b eb 84 3c b3 ec c6 3c 0b c2 67 bc
       -0.07310415 0.016225567 0.024282789 -0.014145385
000060 bc 4a 54 3d 55 02 8a bd 9f e6 95 3d 23 e3 ca 3c
       0.051829085 -0.06738726 0.07319378 0.02476651
000070 13 83 c2 3b fc b3 ee bc 8a ed a5 3c f0 da 87 bc
       0.0059360354 -0.029138558 0.020254869 -0.01658389
000080 3b 75 80 3d 9d 30 8a 3c 7d 68 d6 3c c0 12 a1 3d
       0.0627236 0.016868884 0.02617287 0.078649044
000090 93 40 7e 3d 07 b7 e9 bc 2a 6f 26 bd 29 48 be bd
       0.0620733 -0.028529657 -0.040633358 -0.09291107
0000a0 01 09 10 bc 85 34 26 3b cd dc 19 3d cd 23 cd 3c
       -0.008791209 0.0025360894 0.037564088 0.025041485
0000b0 fb 92 90 3d c1 91 a6 bd 5d b6 04 bd f8 60 9f 3d
       0.07059284 -0.08133269 -0.032400478 0.07782167
0000c0 dd d3 af 3d 63 1d 19 3e 8f 10 6a 3d c3 92 d9 3d
       0.085853316 0.14952616 0.057144698 0.10623696
0000d0 4c dc 1d bd f7 80 62 bb d6 5b 3a bc 23 d5 24 bd
       -0.03854017 -0.0034561732 -0.011374434 -0.040242326
0000e0 eb 35 9d 3d 33 4f 80 3b 5e 15 ef 3d b7 8e 61 bd
       0.076763 0.0039156913 0.11673997 -0.055067744
0000f0 b0 e0 d7 3c bf e9 3f 3d 92 ad a1 3c 56 6a 74 bc
       0.026352257 0.046853777 0.019736085 -0.014917931
000100 63 ac cc 3b 15 4c a4 bb 38 6a 6a bc 9a 64 85 3d
       0.006246136 -0.0050139525 -0.014307551 0.06513329
000110 77 bb 90 3d e5 95 90 bd 56 0a 0b bc a3 fb 25 3d
       0.07067006 -0.0705984 -0.008486351 0.040523183
000120 61 f8 51 bc 98 f3 89 3d 7c ce fa bc 64 f3 89 3c
       -0.012815566 0.06735915 -0.030616038 0.01683969
000130 f0 63 64 bd 59 3e 19 3d 99 27 80 3d ba ab bf 3a
       -0.05575937 0.037412975 0.06257553 0.0014623322
000140 e6 2b 9b 3d b0 9d c3 bc 96 a7 63 3b f7 34 0e 3d
       0.07576732 -0.023878902 0.003473734 0.03471848
000150 86 44 72 bd 7e f5 a6 3c 38 15 a3 3d 50 b2 f8 3c
       -0.05914738 0.020380732 0.079630315 0.030358464
000160 4b 14 a1 bc 95 97 60 3d b4 6c 1c bd 86 40 07 bd
       -0.019662997 0.05483206 -0.038189605 -0.03302052
000170 3c 0e 7f 3d 98 a6 a3 3c bf 0a 74 3d 5e 91 d1 3d
       0.062269434 0.019976899 0.05958056 0.10232805
000180 26 09 38 bd e2 6d fe 3c 0a f4 05 3e bc 8d 3b 3d
       -0.0449306 0.031058256 0.13081375 0.045789465
000190 7d 87 60 bd 9d 98 1f 3e dd 05 c1 39 1c 01 83 3c
       -0.05481671 0.15585561 0.00036816197 0.01599174
0001a0 c1 d8 d4 bd e5 01 22 bc 84 52 28 bd 24 90 ec bd
       -0.10392905 -0.009888147 -0.041094318 -0.1155093
0001b0 f6 46 aa 3c f5 ff 60 3d b1 21 01 be e7 55 d0 3d
       0.02078579 0.0549316 -0.12610509 0.101726346
0001c0 42 68 84 3d 89 96 8e bc cf 73 8e 3d bc 23 23 3d
       0.06465198 -0.017405765 0.069556825 0.039829
0001d0 cf 89 26 bd b3 8c 1e bd 5b 0f b5 3b 13 3c 97 3d
       -0.04065877 -0.0387084 0.005525512 0.07384505
0001e0 8a 1d ef 3b 2b 32 d3 3d b6 a6 75 bd 6f cb 05 bc
       0.0072972225 0.10312303 -0.05997344 -0.008166178
0001f0 95 71 91 b9 49 7f 35 bd ba 90 8e bc 10 de 13 bd
       -0.0002774118 -0.04431084 -0.017402995 -0.036100447

fc2.weight f4 [64, 128]
000000 73 dc db 3d 08 f9 73 3d 46 22 94 bc b4 d4 36 3d
       0.10735407 0.059563667 -0.01808275 0.044636443
000010 04 50 5a bd 5f 0c 9f 3d 16 08 8d bd a4 5e d5 3c
       -0.053298965 0.077660315 -0.06886308 0.026046105
000020 23 6b 16 be 91 6c 21 3e 10 a3 ff bd eb a2 fa bd
       -0.14689307 0.15764071 -0.124822736 -0.122381054
000030 90 20 e9 bc 0e 49 c4 3d 16 44 08 3e ca 95 b7 bc
       -0.02845791 0.095842466 0.13307223 -0.022410292
000040 bb 9d a5 3d 68 06 ba 3b 2f 80 77 bd 7b 3b bc 3d
       0.08086725 0.005677033 -0.06042498 0.091910325
000050 9a e6 b2 3c 5a 8b bb bd 20 15 bf bc 3a bd d0 3c
       0.021838475 -0.091574386 -0.023325503 0.025480855
000060 fc 44 ca 3d 86 5a 71 3c 8f ee 00 3e bb aa bb bd
       0.09876439 0.014731055 0.12591003 -0.09163424
000070 25 9d af 3d 57 c3 8d 3d 73 97 92 bd 1e 29 35 3e
       0.08574895 0.06922024 -0.07157793 0.17691466
000080 75 df 18 3c 73 d2 67 3c dc 2b e4 3d 06 f0 2d 3d
       0.00933062 0.014149296 0.11141178 0.042465232
000090 ef b7 a2 3d c7 8c 57 3c cc 83 0d be 01 a3 00 bd
       0.07945239 0.0131561225 -0.13819808 -0.031405453
0000a0 4d b8 39 bd d4 4f 8a 3d d6 8a c9 3d 6e 19 6f 3d
       -0.04534178 0.06753507 0.09840934 0.05837386
0000b0 33 72 22 3e 37 ca 96 bd dd ad 1b 3d 85 a2 dc 3b
       0.15863876 -0.07362788 0.038007606 0.006733241
0000c0 a0 a2 cb bd 7d 3e 77 3d 45 2d ee bd 07 43 e5 3d
       -0.09943128 0.060362328 -0.11629728 0.11194425
0000d0 19 14 23 3e 26 52 28 bd 11 d3 55 3d 0d 8f ad bd
       0.15925635 -0.041093968 0.05220324 -0.084745504
0000e0 7a 03 35 3d 8e 72 11 3c d1 ab 97 3d 8c 92 3d bc
       0.04419277 0.00887741 0.07405818 -0.011570584
0000f0 19 38 b3 ba 84 b3 bf bd a2 6d 0a 3e f1 a2 1d be
       -0.0013673335 -0.09360412 0.13518384 -0.15394188
000100 1d 8f 01 3e 65 eb 65 3d 6e 44 da 3d c4 83 91 bc
       0.1265225 0.056132693 0.10657583 -0.017763026
000110 f1 ce 0e bd f9 ae 4e bc be 03 44 3d 2c b8 95 bd
       -0.034865323 -0.012614959 0.04785513 -0.073105186
000120 f8 59 79 3b 49 a7 0b bd 3d a2 20 3d 61 19 cd bc
       0.003804801 -0.034095082 0.039217222 -0.025036516
000130 07 ef 96 bc 38 53 bc 3c 3f 9d a9 bd e0 2a 1f bd
       -0.018424524 0.0229889 -0.082819454 -0.03885925
000140 c5 e2 41 3c ae cd f1 3b 95 2e 76 bd 79 c1 d1 bc
       0.011833851 0.0073792553 -0.060103018 -0.02560495
000150 28 39 7c bc 0f 46 1d be f2 6d b5 3d a6 5d 11 3e
       -0.0153944865 -0.15358756 0.08858861 0.1419588
000160 cb 0c 42 3d 2b 9f d5 3d 24 af ce 3d 37 81 29 3d
       0.04737548 0.104307495 0.10091999 0.041382995
000170 75 45 cf bc e9 3a 06 3d 7f 29 cb 3d 31 8d 58 3d
       -0.025301674 0.032771025 0.09920024 0.052869026
000180 aa 2b fe bc d6 97 fe 3b c9 d3 8f 3c 18 b7 c3 bc
       -0.03102668 0.007769565 0.017557042 -0.023891017
000190 7f 48 1b bd 76 0b 9d bb 53 d3 0f bc 5f 89 d9 3d
       -0.037910935 -0.004792626 -0.008778411 0.106219046
0001a0 91 a0 be 3d 7a 76 b8 3d f8 dc 8f 3d 29 40 fd 3c
       0.09307969 0.090069726 0.07024568 0.030914383
0001b0 0e 61 1f 3c b8 d9 8f 39 f2 42 0d be 83 53 11 bd
       0.0097277295 0.000274373 -0.13795069 -0.035480034
0001c0 4f 9c 1f bd 45 d8 42 3c f9 84 9e 3d f0 47 97 bd
       -0.038967427 0.011892383 0.07740206 -0.07386768
0001d0 43 0c 82 3c dd 52 40 bd b4 fc 69 3d fb 11 c3 3d
       0.015874987 -0.046954025 0.057125762 0.09524914
0001e0 46 73 b0 bc fa e6 a7 3d 5f b4 6c 3b 3d ec d4 3b
       -0.021539342 0.08198352 0.0036118252 0.0064978884
0001f0 28 83 3e bd a9 79 c0 bd 23 17 d6 bd 1c 63 ab bd
       -0.0465118 -0.09398205 -0.10453632 -0.08368513
000200 e7 95 11 3d bd 0d 8c bd 16 a7 e4 3c 85 bb 92 bd
       0.03554335 -0.06838558 0.027911704 -0.07164673
000210 57 e1 06 be 83 93 26 bd 01 b8 8c 3d ed 19 25 bd
       -0.13171898 -0.040668022 0.068710335 -0.040307928
000220 66 a3 14 bc 50 36 b2 3d c0 ab ac bd 77 b2 2d ba
       -0.00907216 0.087017655 -0.08431196 -0.00066260196
000230 82 3c 65 bd 47 41 33 3c fa 5a 17 3e 91 98 3d 3d
       -0.055965908 0.010940856 0.14780799 0.046288077
000240 50 c2 52 bd ce db c8 3d d7 b0 93 3d 19 76 c3 bc
       -0.051454842 0.098075494 0.07211464 -0.023860024
000250 bb 12 91 3d 29 05 09 3e a4 37 53 3d 33 d0 31 bd
       0.07083651 0.13380875 0.051566735 -0.043411445
000260 99 61 8d bd 41 42 34 3e 5d e1 6c 3d 23 4f d9 bd
       -0.06903381 0.17603399 0.05783211 -0.10610797
000270 70 83 9e bd 74 ce a5 3b fd f9 a4 3c 2c 0b 06 3e
       -0.077399135 0.0050600115 0.020138735 0.13090199
000280 eb 16 99 3d 85 82 2b 3e 17 e5 30 be 00 2b e8 3c
       0.074750744 0.16749008 -0.17274891 0.028340816
000290 7c 92 74 3d 18 4f d7 bd f4 0d 8f bd 2d 70 d7 bc
       0.05971001 -0.10513133 -0.06985083 -0.026298607
0002a0 10 93 f4 3d cb f3 39 be 81 b7 6c 3c a7 77 a9 3d
       0.119421124 -0.18159406 0.014448048 0.08274775
0002b0 87 a3 cf bd aa 25 21 bd f1 9a b3 3d 0d ac b3 3c
       -0.10138612 -0.03934256 0.08769787 0.021932626
0002c0 29 0d 76 3c 78 16 4a bd ad 52 e1 3c 01 f3 83 bd
       0.015017786 -0.049337834 0.027505243 -0.06442834
0002d0 91 72 a4 3c 78 ef 33 bd 86 c3 aa bc 6d d3 8d bd
       0.02007416 -0.043929547 -0.020845186 -0.06925092
0002e0 24 df b8 3d d0 0d 3d 3c 11 f6 6c 3d 06 ba 2f 3e
       0.09026936 0.011538938 0.057851855 0.17160806
0002f0 84 cb 20 3c f6 81 18 bd 98 1b 47 3d 00 84 d8 3c
       0.009814147 -0.037233315 0.0486103 0.02643013
000300 0a 7e a4 3d 3a ca fe 3c 92 93 06 bd d6 18 ea 3d
       0.080318525 0.031102289 -0.032855578 0.11430518
000310 9f c0 28 3d af a3 e7 3d de 54 44 3d 2c e6 32 3d
       0.041199323 0.11310517 0.0479325 0.04367654
000320 a2 d1 2a 3d fc 95 8f 3d d4 1b 9b bd 05 00 00 be
       0.041703828 0.07011029 -0.07573667 -0.12500007
000330 70 3d 6f bd c5 81 d7 bd 2e 5e cc 3d d0 0c 57 bc
       -0.0584082 -0.105227984 0.09978901 -0.013125613
000340 61 85 33 bc a0 65 9c 3d 16 f8 20 bc 2e a0 14 3e
       -0.010957093 0.07636571 -0.009824773 0.14514229
000350 04 ca 81 3c c6 13 a8 3c 7a eb 16 3e 74 69 52 3c
       0.015843399 0.020517241 0.14738265 0.012842525
000360 38 ea 8b 3c 02 4a 4f bd 15 c6 24 3e 6d 93 1e 3d
       0.017079458 -0.05060769 0.16091187 0.038714815
000370 6a 4e 90 bd 57 f2 87 3b 15 ba c6 3d 7d 78 0e bc
       -0.07046206 0.004148762 0.09703461 -0.008695719
000380 cc 20 ba bc a7 f7 51 3d 46 58 1a 3e 69 b2 d3 bc
       -0.022720717 0.05126157 0.15072736 -0.025841909
000390 da 33 f2 bc cf ff 67 3c d8 8c 66 bd d7 e3 cf 3d
       -0.02956574 0.014160111 -0.056286663 0.10150879
0003a0 08 74 3c 3d db c2 ae bd 5b b6 a5 3d 36 07 a9 3d
       0.046009094 -0.085332595 0.08091422 0.082533285
0003b0 a9 17 93 3d e9 ca 86 bc 18 25 d3 bd af 6b b3 bd
       0.07182247 -0.016454177 -0.103098094 -0.087607734
0003c0 f5 97 4a bc 71 3a 4d bc 17 87 db bc 70 8c 35 3d
       -0.012365331 -0.012526141 -0.026797814 0.044323385
0003d0 08 80 b5 3d 7c cd 46 3d d0 90 9c 3d da 9b cb 3d
       0.08862311 0.04853581 0.07644808 0.09941836
0003e0 80 da f8 3c 4e 6d ed bc 64 5d 4c 3d 0b 22 34 bd
       0.030377626 -0.028982785 0.04989375 -0.04397778
0003f0 86 c1 b4 3d 4a 65 7c 3d 78 28 88 bd cc 5e 23 bd
       0.08825974 0.061620034 -0.06648344 -0.039885327

fc2.bias f4 [64]
000000 72 b6 a6 3d d2 78 9d bd 67 80 7a 3d 5e b1 32 bb
       0.081402674 -0.0768906 0.06115761 -0.0027266364
000010 e7 1a 5e 3d 74 44 90 3d 7b d8 c3 bc 64 8f eb 3d
       0.054224875 0.070443064 -0.023906937 0.11501959
000020 ea 16 1d 3e d9 f4 42 3d 7f be 76 bc 3b d7 f0 3c
       0.15340772 0.047596786 -0.015060066 0.029399505
000030 a7 2f 4d 3d 2f 15 37 bb 68 4c 03 be a0 d8 6f bd
       0.050094273 -0.002793621 -0.12822115 -0.0585562
000040 24 a5 1a 3e 5b 05 a1 3d 59 0d 38 3e ab ab 9f 3c
       0.15102059 0.078623496 0.17973842 0.019491037
000050 ef 60 fc 3c a9 d4 7b bd 8b 30 90 3d 55 23 88 bd
       0.03080794 -0.061482105 0.07040509 -0.06647364
000060 c9 48 1c 3d 03 7e 1d 3d 9c ba 23 3e de 45 14 bd
       0.03815535 0.038450252 0.15989155 -0.036199443
000070 16 a6 36 3d 7d 0c 0c 3e d2 d0 88 3d 9c 03 26 3e
       0.044591986 0.13676639 0.06680454 0.16212314
000080 9c 79 bd 3c 59 01 32 3e 5f 6c 47 3e 0c fc d2 bc
       0.023129277 0.17383327 0.19474934 -0.025754951
000090 1f c4 a5 bb fc 30 e0 bc dc c4 a2 bc 81 e4 98 3d
       -0.00505878 -0.027367108 -0.01986926 0.07465459
0000a0 11 36 06 3e 55 6e 2a bd fc 20 d7 3d 0e 8f c0 bd
       0.13106562 -0.041609127 0.10504338 -0.094022855
0000b0 fc 85 be 3d 05 3f 4c 3e db 44 97 3d aa 43 2f 3e
       0.09302899 0.19945915 0.0738618 0.17115656
0000c0 b6 2e 00 3e c4 c3 a6 3d 44 38 da bd 2b fb 66 3d
       0.12517819 0.08142808 -0.10655263 0.056391876
0000d0 9c 5c 2d 3e 39 1e 0f 3e 1d 14 92 3d dd d3 03 3e
       0.16929859 0.13976373 0.071327426 0.12873788
0000e0 6b 71 3f 3d 0c c9 1e bd a0 c1 b3 bd 98 fc 84 3d
       0.046739023 -0.038765952 -0.087771654 0.06493491
0000f0 ef 09 95 bd 20 06 01 3e f4 2e 41 3e 5b 62 c5 3d
       -0.07277285 0.12599993 0.18865567 0.096379004

fc3.weight f4 [10, 64]
000000 e6 d5 94 bd ea ef de bd 55 e0 1e 3d 2e bc da 3e
       -0.072673604 -0.10885604 0.03878816 0.42721695
000010 2c 81 b4 bc 90 7c 4a bd 19 04 1d 3d 85 0f f9 be
       -0.02203425 -0.0494352 0.038333986 -0.48644653
000020 74 92 9e be 77 6e b5 be ac 67 a4 3d d8 e9 86 be
       -0.3097111 -0.3543584 0.08027586 -0.26350284
000030 b9 85 4d be 79 9b ec 3d 93 2d 88 3e dc 62 10 3d
       -0.20070542 0.115530916 0.2659727 0.03525053
000040 a0 88 cd be 00 ba 01 bd da 17 f5 bd 5e 83 b1 be
       -0.401433 -0.031671524 -0.1196744 -0.34670538
000050 1b 7b 89 3d d1 49 db bd 65 1c df be ca e8 ef 3c
       0.06712934 -0.10707439 -0.4357635 0.029285807
000060 b2 ae 0e 3f d0 9f ec 3d 77 c1 3d 3e fc 7e 21 be
       0.55735314 0.11553919 0.18530832 -0.15771097
000070 ca 7a be 3e 27 0a 21 be 41 e9 00 be ca 52 c6 3d
       0.37203056 -0.15726529 -0.1258898 0.096837595
000080 4a 5f c2 be 14 93 b8 3d b4 7a 88 3e 78 ca be 3e
       -0.37963325 0.09012428 0.26656115 0.37263846
000090 f0 1a 34 3e 3f ae 7b 3e a7 22 09 3d b0 a4 a5 3e
       0.17588401 0.24578188 0.033480313 0.3235221
0000a0 e4 8f 9f be 3e 37 6f 3d 1f 4e d1 3e 18 cb 3d be
       -0.31164467 0.058402292 0.40879914 -0.18534505
0000b0 75 40 ce 3e 35 20 16 be 6f 60 e3 3d 56 7d b1 3d
       0.40283552 -0.14660724 0.111023776 0.08666484
0000c0 8b 14 ae bc 9a 27 bf be 67 c9 6c bc e2 9e 28 be
       -0.02125003 -0.373349 -0.014452315 -0.16466859
0000d0 48 73 cb bc 57 9b a1 bc 59 76 fa b9 3a a6 51 be
       -0.024835244 -0.019727392 -0.00047771892 -0.20473567
0000e0 0c 18 88 be 64 1e 94 bd 38 d5 a6 3e 61 cc 01 3e
       -0.26580846 -0.07232359 0.32584548 0.1267562
0000f0 c7 7d 97 3e a0 5a 80 be cf 8d fe be 8c 31 9d be
       0.29588148 -0.2506914 -0.49717566 -0.30701864
000100 3d 2f a4 3e b7 1b c0 bd c5 64 05 3e 24 24 49 bd
       0.3206729 -0.09380286 0.13026722 -0.049106732
000110 d5 2d bb bd 50 19 cb 3e 5c 7a 01 3a 58 4f 04 3e
       -0.09139601 0.3966775 0.00049391924 0.12920892
000120 7c 85 fe 3e 5b 3d af bc 71 d7 94 bd 30 89 f7 3b
       0.49711215 -0.021391561 -0.07267655 0.007554196
000130 6c e9 7f be 95 61 c2 bd 92 e3 af be 21 e9 15 bc
       -0.24991387 -0.094912685 -0.3435331 -0.009149821
000140 da b2 a3 3e e2 f7 35 be 79 4e e6 3e 71 d1 13 be
       0.3197239 -0.17770341 0.44981745 -0.14435364
000150 59 95 85 3e 36 52 03 be 2c 34 52 3e 74 59 4b bc
       0.26090506 -0.1282433 0.20527714 -0.012411464
000160 bf ab 0d 3d 57 3e c4 be 6e 9b 41 3e 30 79 b4 be
       0.034587618 -0.38328812 0.18906948 -0.3524871
000170 af 13 e1 be 46 db 0c 3f c9 c7 ad 3d 3c 0c c4 be
       -0.4396033 0.55022085 0.084853716 -0.38290584
000180 7e 96 93 3e ab 8e a2 be ef 98 08 bf c2 c1 94 3e
       0.28825754 -0.31749472 -0.5335836 0.29054075
000190 46 cb 75 be 9f 2c 8f 3d 41 6c db bd 08 2d 98 be
       -0.24003324 0.06990933 -0.10714007 -0.29721856
0001a0 b4 15 cb 3e d6 7f 1b 3e 6e 00 38 bd ba 01 9e bd
       0.39664996 0.15185484 -0.044922285 -0.07715173
0001b0 e5 f3 87 be cf ef 47 be d5 f8 c2 3c 9f f5 26 be
       -0.26553264 -0.19525073 0.023800293 -0.16304635
0001c0 5c 2a 53 3e 72 e4 3e 3e 1d 49 13 3e 33 1a 4c be
       0.20621628 0.18641832 0.14383359 -0.19931869
0001d0 2b bb 01 bf e3 fb 7c be b3 ef d0 3d 4f 06 b4 bd
       -0.5067622 -0.24705462 0.10201969 -0.08790266
0001e0 a0 80 d8 3e ed 5d 73 bd 23 68 3b be 35 23 2d 3e
       0.42285633 -0.059415746 -0.18301444 0.16907962
0001f0 06 c1 c1 be 86 83 76 3e 18 97 da 3e 30 4c 60 bc
       -0.37842578 0.2407361 0.426934 -0.0136900395
000200 85 1a 78 3d 7d 13 dd 3d ec 47 9d be f6 10 0d 3e
       0.060572166 0.10794733 -0.30718935 0.13776001
000210 30 69 a0 be 17 0c 9f 3e f3 69 20 3d a6 79 3e 3e
       -0.31330252 0.3106391 0.03916354 0.18601093
000220 cb 6c bd bc ef a5 19 3e ab 93 ef bd a6 48 d4 3e
       -0.023123166 0.15004705 -0.11698087 0.41461676
000230 50 b1 b3 3e d2 10 ae bd fa 13 97 3e 39 51 c5 bd
       0.35096216 -0.08499302 0.29507428 -0.096346326
000240 d0 0d fa be 05 15 af 3b cf b3 08 3a 5f 74 2a 3e
       -0.48838663 0.005343082 0.0005214782 0.16645955
000250 b8 65 74 be 1e b8 af 3d 1a 27 41 be 9c 42 cc bd
       -0.23866928 0.085800394 -0.18862572 -0.09973642
000260 d8 46 22 be b4 d8 8a 3e 4a 7f 8b be 29 e8 f0 3d
       -0.15847337 0.27118456 -0.2724555 0.11763031
000270 29 5d 1c 3e f5 0f 58 3e 6c 71 5c bb 6f 71 7a 3d
       0.15269913 0.21099837 -0.003363694 0.061143335
000280 09 a1 81 3d 6c f8 4b be 23 84 98 bc 84 b5 52 be
       0.06329543 -0.19918984 -0.018617695 -0.20577055
000290 85 db 9f be 64 28 0f be c8 2e 14 3c 92 fb ae 3e
       -0.31222168 -0.13980252 0.009044357 0.34176308
0002a0 cb a2 98 3d 10 13 c2 3e 0f a5 c6 bd 58 60 86 be
       0.07452925 0.3790517 -0.09699451 -0.2624538
0002b0 3f 6b 00 3f 62 40 70 be c0 9a 0a 3e 18 00 8d be
       0.50163645 -0.2346206 0.13535595 -0.27539134
0002c0 0d a8 1c be 52 a3 db 3e 9a 7b 0a 3d 8e 65 d6 3e
       -0.15298481 0.4289804 0.033809282 0.41874355
0002d0 ef 4b b2 be 13 11 f4 be 4b f0 5d bd 0b c5 c1 be
       -0.34823558 -0.47669277 -0.05418424 -0.37845644
0002e0 f3 05 da 3e dc ae ee bc df b8 ed 3d 07 1d 7d be
       0.42582664 -0.029136114 0.11607527 -0.24718104
0002f0 cd 9b ba 3e ec c1 9d be d9 82 cf 3d 17 de 57 bd
       0.36446992 -0.30812013 0.10132379 -0.052702036
000300 38 f5 4a be 03 89 b5 3e 17 b5 de 3d 60 02 0c 3d
       -0.19820106 0.35456094 0.10874384 0.034181952
000310 29 b4 e2 3d 94 28 8d 3e 85 88 35 3d 54 94 d1 be
       0.11069519 0.2757002 0.04431965 -0.40933478
000320 78 92 da be c3 a9 1d 3c 80 5f e0 3d d4 5d af 3e
       -0.42689872 0.009622994 0.10955715 0.34251273
000330 2c 78 ee be 46 98 9a 3d d9 76 dd 3d b7 64 e2 bd
       -0.4657606 0.07548575 0.10813684 -0.11054366
000340 86 37 94 3e 4b 78 b3 be 61 06 16 be b2 66 55 3e
       0.2894861 -0.35052714 -0.14650871 0.20839956
000350 90 8b 31 be 87 fd b9 bb 08 f5 29 3e 5b a1 7a 3c
       -0.17338395 -0.005675975 0.16597378 0.015297259
000360 a3 21 9c be 34 8e 3e 3e 3e 25 4c 3e e2 ed f8 bd
       -0.30494413 0.18608934 0.19936082 -0.121547475
000370 3c 57 7e 3e 67 48 be be 94 87 a5 3b d9 e2 d7 bd
       0.24837965 -0.37164614 0.0050515626 -0.10541315
000380 11 f5 74 3e 07 b5 ae 3e e8 e9 27 3e e8 33 64 bd
       0.2392161 0.34122488 0.16397822 -0.055713564
000390 b4 e6 05 bf 89 d7 1d bd 65 e2 df bd 42 af 5f be
       -0.5230515 -0.03853563 -0.10931853 -0.218442
0003a0 59 32 ce bd cd 2d ac 3d 12 d5 94 be 51 89 5a 3e
       -0.10068197 0.08407173 -0.2906881 0.21341445
0003b0 93 a3 7e be c0 77 a5 3c fe 3c af 3d b3 22 0f 3f
       -0.24867086 0.020198703 0.08556555 0.5591232
0003c0 0a 04 8e be e0 da ed 3e d0 c8 09 3e 8b c9 1b be
       -0.27737457 0.4645605 0.1345551 -0.15213601
0003d0 bc 89 92 be e9 7c 94 3e dc 60 35 3d 18 85 70 be
       -0.28620708 0.2900155 0.044281825 -0.23488271
0003e0 68 9a 89 3e f0 c0 53 3d 2e 6c 5b bd ea 73 10 be
       0.26875615 0.05169767 -0.053569965 -0.14106718
0003f0 b6 01 4b 3e 75 57 81 3e ef 4e 91 3e 69 44 e1 bd
       0.19824871 0.25262037 0.28380534 -0.10999376

fc3.bias f4 [10]
000000 2d 7a 04 be 82 b9 31 3e fd b9 07 be 65 fb b1 bd
       -0.12937231 0.17355922 -0.13254543 -0.08690528
000010 69 1c c8 3a 0a 7d b5 3e fa c8 37 be 70 70 18 3d
       0.0015267256 0.3544696 -0.1794776 0.037216604
000020 9c 9a 38 be dd df 48 b9
       -0.18027729 -0.00019156882
